program(1.0)
[buildInfo = dict<tensor<string, []>, tensor<string, []>>({{"coremlc-component-MIL", "3510.2.1"}, {"coremlc-version", "3500.32.1"}, {"coremltools-component-tensorflow", "2.20.0"}, {"coremltools-version", "9.0"}})]
{
    func main<ios15>(tensor<fp32, [1, 3, 224, 224]> input) {
            tensor<fp32, [1, 3, 1, 1]> input__biased___y_0 = const()[name = tensor<string, []>("input__biased___y_0"), val = tensor<fp32, [1, 3, 1, 1]>([[[[-0x1.ap+6]], [[-0x1.d4p+6]], [[-0x1.ecp+6]]]])];
            tensor<fp32, [1, 3, 224, 224]> input__biased__ = add(x = input, y = input__biased___y_0)[name = tensor<string, []>("input__biased__")];
            tensor<string, []> pad_0_mode_0 = const()[name = tensor<string, []>("pad_0_mode_0"), val = tensor<string, []>("constant")];
            tensor<int32, [8]> pad_1_pad_0 = const()[name = tensor<string, []>("pad_1_pad_0"), val = tensor<int32, [8]>([0, 0, 0, 0, 3, 3, 3, 3])];
            tensor<string, []> input_to_fp16_dtype_0 = const()[name = tensor<string, []>("input_to_fp16_dtype_0"), val = tensor<string, []>("fp16")];
            tensor<fp16, []> const_0_to_fp16 = const()[name = tensor<string, []>("const_0_to_fp16"), val = tensor<fp16, []>(0x0p+0)];
            tensor<fp16, [1, 3, 224, 224]> input_to_fp16 = cast(dtype = input_to_fp16_dtype_0, x = input__biased__)[name = tensor<string, []>("cast_2")];
            tensor<fp16, [1, 3, 230, 230]> pad_1_cast_fp16 = pad(constant_val = const_0_to_fp16, mode = pad_0_mode_0, pad = pad_1_pad_0, x = input_to_fp16)[name = tensor<string, []>("pad_1_cast_fp16")];
            tensor<string, []> opennsfw2_1_conv_1_1_convolutionx_pad_type_0 = const()[name = tensor<string, []>("opennsfw2_1_conv_1_1_convolutionx_pad_type_0"), val = tensor<string, []>("valid")];
            tensor<int32, [2]> opennsfw2_1_conv_1_1_convolutionx_strides_0 = const()[name = tensor<string, []>("opennsfw2_1_conv_1_1_convolutionx_strides_0"), val = tensor<int32, [2]>([2, 2])];
            tensor<int32, [2]> opennsfw2_1_conv_1_1_convolutionx_dilations_0 = const()[name = tensor<string, []>("opennsfw2_1_conv_1_1_convolutionx_dilations_0"), val = tensor<int32, [2]>([1, 1])];
            tensor<int32, []> opennsfw2_1_conv_1_1_convolutionx_groups_0 = const()[name = tensor<string, []>("opennsfw2_1_conv_1_1_convolutionx_groups_0"), val = tensor<int32, []>(1)];
            tensor<int32, [4]> opennsfw2_1_conv_1_1_convolutionx_pad_0 = const()[name = tensor<string, []>("opennsfw2_1_conv_1_1_convolutionx_pad_0"), val = tensor<int32, [4]>([0, 0, 0, 0])];
            tensor<fp16, [64, 3, 7, 7]> const_213_to_fp16 = const()[name = tensor<string, []>("const_213_to_fp16"), val = tensor<fp16, [64, 3, 7, 7]>(BLOBFILE(path = tensor<string, []>("@model_path/weights/weight.bin"), offset = tensor<uint64, []>(64)))];
            tensor<fp16, [64]> const_214_to_fp16 = const()[name = tensor<string, []>("const_214_to_fp16"), val = tensor<fp16, [64]>(BLOBFILE(path = tensor<string, []>("@model_path/weights/weight.bin"), offset = tensor<uint64, []>(18944)))];
            tensor<fp16, [1, 64, 112, 112]> opennsfw2_1_bn_1_1_batchnorm_add_1_cast_fp16 = conv(bias = const_214_to_fp16, dilations = opennsfw2_1_conv_1_1_convolutionx_dilations_0, groups = opennsfw2_1_conv_1_1_convolutionx_groups_0, pad = opennsfw2_1_conv_1_1_convolutionx_pad_0, pad_type = opennsfw2_1_conv_1_1_convolutionx_pad_type_0, strides = opennsfw2_1_conv_1_1_convolutionx_strides_0, weight = const_213_to_fp16, x = pad_1_cast_fp16)[name = tensor<string, []>("opennsfw2_1_bn_1_1_batchnorm_add_1_cast_fp16")];
            tensor<fp16, [1, 64, 112, 112]> opennsfw2_1_activation_1_Relu_cast_fp16 = relu(x = opennsfw2_1_bn_1_1_batchnorm_add_1_cast_fp16)[name = tensor<string, []>("opennsfw2_1_activation_1_Relu_cast_fp16")];
            tensor<int32, [2]> max_pool_0_kernel_sizes_0 = const()[name = tensor<string, []>("max_pool_0_kernel_sizes_0"), val = tensor<int32, [2]>([3, 3])];
            tensor<int32, [2]> max_pool_0_strides_0 = const()[name = tensor<string, []>("max_pool_0_strides_0"), val = tensor<int32, [2]>([2, 2])];
            tensor<string, []> max_pool_0_pad_type_0 = const()[name = tensor<string, []>("max_pool_0_pad_type_0"), val = tensor<string, []>("same")];
            tensor<int32, [4]> max_pool_0_pad_0 = const()[name = tensor<string, []>("max_pool_0_pad_0"), val = tensor<int32, [4]>([0, 0, 0, 0])];
            tensor<bool, []> max_pool_0_ceil_mode_0 = const()[name = tensor<string, []>("max_pool_0_ceil_mode_0"), val = tensor<bool, []>(false)];
            tensor<fp16, [1, 64, 56, 56]> max_pool_0_cast_fp16 = max_pool(ceil_mode = max_pool_0_ceil_mode_0, kernel_sizes = max_pool_0_kernel_sizes_0, pad = max_pool_0_pad_0, pad_type = max_pool_0_pad_type_0, strides = max_pool_0_strides_0, x = opennsfw2_1_activation_1_Relu_cast_fp16)[name = tensor<string, []>("max_pool_0_cast_fp16")];
            tensor<string, []> opennsfw2_1_conv_stage0_block0_branch2a_1_convolutionx_pad_type_0 = const()[name = tensor<string, []>("opennsfw2_1_conv_stage0_block0_branch2a_1_convolutionx_pad_type_0"), val = tensor<string, []>("same")];
            tensor<int32, [2]> opennsfw2_1_conv_stage0_block0_branch2a_1_convolutionx_strides_0 = const()[name = tensor<string, []>("opennsfw2_1_conv_stage0_block0_branch2a_1_convolutionx_strides_0"), val = tensor<int32, [2]>([1, 1])];
            tensor<int32, [2]> opennsfw2_1_conv_stage0_block0_branch2a_1_convolutionx_dilations_0 = const()[name = tensor<string, []>("opennsfw2_1_conv_stage0_block0_branch2a_1_convolutionx_dilations_0"), val = tensor<int32, [2]>([1, 1])];
            tensor<int32, []> opennsfw2_1_conv_stage0_block0_branch2a_1_convolutionx_groups_0 = const()[name = tensor<string, []>("opennsfw2_1_conv_stage0_block0_branch2a_1_convolutionx_groups_0"), val = tensor<int32, []>(1)];
            tensor<int32, [4]> opennsfw2_1_conv_stage0_block0_branch2a_1_convolutionx_pad_0 = const()[name = tensor<string, []>("opennsfw2_1_conv_stage0_block0_branch2a_1_convolutionx_pad_0"), val = tensor<int32, [4]>([0, 0, 0, 0])];
            tensor<fp16, [32, 64, 1, 1]> const_215_to_fp16 = const()[name = tensor<string, []>("const_215_to_fp16"), val = tensor<fp16, [32, 64, 1, 1]>(BLOBFILE(path = tensor<string, []>("@model_path/weights/weight.bin"), offset = tensor<uint64, []>(19136)))];
            tensor<fp16, [32]> const_216_to_fp16 = const()[name = tensor<string, []>("const_216_to_fp16"), val = tensor<fp16, [32]>(BLOBFILE(path = tensor<string, []>("@model_path/weights/weight.bin"), offset = tensor<uint64, []>(23296)))];
            tensor<fp16, [1, 32, 56, 56]> opennsfw2_1_bn_stage0_block0_branch2a_1_batchnorm_add_1_cast_fp16 = conv(bias = const_216_to_fp16, dilations = opennsfw2_1_conv_stage0_block0_branch2a_1_convolutionx_dilations_0, groups = opennsfw2_1_conv_stage0_block0_branch2a_1_convolutionx_groups_0, pad = opennsfw2_1_conv_stage0_block0_branch2a_1_convolutionx_pad_0, pad_type = opennsfw2_1_conv_stage0_block0_branch2a_1_convolutionx_pad_type_0, strides = opennsfw2_1_conv_stage0_block0_branch2a_1_convolutionx_strides_0, weight = const_215_to_fp16, x = max_pool_0_cast_fp16)[name = tensor<string, []>("opennsfw2_1_bn_stage0_block0_branch2a_1_batchnorm_add_1_cast_fp16")];
            tensor<string, []> opennsfw2_1_conv_stage0_block0_proj_shortcut_1_convolutionx_pad_type_0 = const()[name = tensor<string, []>("opennsfw2_1_conv_stage0_block0_proj_shortcut_1_convolutionx_pad_type_0"), val = tensor<string, []>("same")];
            tensor<int32, [2]> opennsfw2_1_conv_stage0_block0_proj_shortcut_1_convolutionx_strides_0 = const()[name = tensor<string, []>("opennsfw2_1_conv_stage0_block0_proj_shortcut_1_convolutionx_strides_0"), val = tensor<int32, [2]>([1, 1])];
            tensor<int32, [2]> opennsfw2_1_conv_stage0_block0_proj_shortcut_1_convolutionx_dilations_0 = const()[name = tensor<string, []>("opennsfw2_1_conv_stage0_block0_proj_shortcut_1_convolutionx_dilations_0"), val = tensor<int32, [2]>([1, 1])];
            tensor<int32, []> opennsfw2_1_conv_stage0_block0_proj_shortcut_1_convolutionx_groups_0 = const()[name = tensor<string, []>("opennsfw2_1_conv_stage0_block0_proj_shortcut_1_convolutionx_groups_0"), val = tensor<int32, []>(1)];
            tensor<int32, [4]> opennsfw2_1_conv_stage0_block0_proj_shortcut_1_convolutionx_pad_0 = const()[name = tensor<string, []>("opennsfw2_1_conv_stage0_block0_proj_shortcut_1_convolutionx_pad_0"), val = tensor<int32, [4]>([0, 0, 0, 0])];
            tensor<fp16, [128, 64, 1, 1]> const_217_to_fp16 = const()[name = tensor<string, []>("const_217_to_fp16"), val = tensor<fp16, [128, 64, 1, 1]>(BLOBFILE(path = tensor<string, []>("@model_path/weights/weight.bin"), offset = tensor<uint64, []>(23424)))];
            tensor<fp16, [128]> const_218_to_fp16 = const()[name = tensor<string, []>("const_218_to_fp16"), val = tensor<fp16, [128]>(BLOBFILE(path = tensor<string, []>("@model_path/weights/weight.bin"), offset = tensor<uint64, []>(39872)))];
            tensor<fp16, [1, 128, 56, 56]> opennsfw2_1_bn_stage0_block0_proj_shortcut_1_batchnorm_add_1_cast_fp16 = conv(bias = const_218_to_fp16, dilations = opennsfw2_1_conv_stage0_block0_proj_shortcut_1_convolutionx_dilations_0, groups = opennsfw2_1_conv_stage0_block0_proj_shortcut_1_convolutionx_groups_0, pad = opennsfw2_1_conv_stage0_block0_proj_shortcut_1_convolutionx_pad_0, pad_type = opennsfw2_1_conv_stage0_block0_proj_shortcut_1_convolutionx_pad_type_0, strides = opennsfw2_1_conv_stage0_block0_proj_shortcut_1_convolutionx_strides_0, weight = const_217_to_fp16, x = max_pool_0_cast_fp16)[name = tensor<string, []>("opennsfw2_1_bn_stage0_block0_proj_shortcut_1_batchnorm_add_1_cast_fp16")];
            tensor<fp16, [1, 32, 56, 56]> opennsfw2_1_activation_stage0_block0_branch2a_1_Relu_cast_fp16 = relu(x = opennsfw2_1_bn_stage0_block0_branch2a_1_batchnorm_add_1_cast_fp16)[name = tensor<string, []>("opennsfw2_1_activation_stage0_block0_branch2a_1_Relu_cast_fp16")];
            tensor<string, []> opennsfw2_1_conv_stage0_block0_branch2b_1_convolutionx_pad_type_0 = const()[name = tensor<string, []>("opennsfw2_1_conv_stage0_block0_branch2b_1_convolutionx_pad_type_0"), val = tensor<string, []>("same")];
            tensor<int32, [2]> opennsfw2_1_conv_stage0_block0_branch2b_1_convolutionx_strides_0 = const()[name = tensor<string, []>("opennsfw2_1_conv_stage0_block0_branch2b_1_convolutionx_strides_0"), val = tensor<int32, [2]>([1, 1])];
            tensor<int32, [2]> opennsfw2_1_conv_stage0_block0_branch2b_1_convolutionx_dilations_0 = const()[name = tensor<string, []>("opennsfw2_1_conv_stage0_block0_branch2b_1_convolutionx_dilations_0"), val = tensor<int32, [2]>([1, 1])];
            tensor<int32, []> opennsfw2_1_conv_stage0_block0_branch2b_1_convolutionx_groups_0 = const()[name = tensor<string, []>("opennsfw2_1_conv_stage0_block0_branch2b_1_convolutionx_groups_0"), val = tensor<int32, []>(1)];
            tensor<int32, [4]> opennsfw2_1_conv_stage0_block0_branch2b_1_convolutionx_pad_0 = const()[name = tensor<string, []>("opennsfw2_1_conv_stage0_block0_branch2b_1_convolutionx_pad_0"), val = tensor<int32, [4]>([0, 0, 0, 0])];
            tensor<fp16, [32, 32, 3, 3]> const_219_to_fp16 = const()[name = tensor<string, []>("const_219_to_fp16"), val = tensor<fp16, [32, 32, 3, 3]>(BLOBFILE(path = tensor<string, []>("@model_path/weights/weight.bin"), offset = tensor<uint64, []>(40192)))];
            tensor<fp16, [32]> const_220_to_fp16 = const()[name = tensor<string, []>("const_220_to_fp16"), val = tensor<fp16, [32]>(BLOBFILE(path = tensor<string, []>("@model_path/weights/weight.bin"), offset = tensor<uint64, []>(58688)))];
            tensor<fp16, [1, 32, 56, 56]> opennsfw2_1_bn_stage0_block0_branch2b_1_batchnorm_add_1_cast_fp16 = conv(bias = const_220_to_fp16, dilations = opennsfw2_1_conv_stage0_block0_branch2b_1_convolutionx_dilations_0, groups = opennsfw2_1_conv_stage0_block0_branch2b_1_convolutionx_groups_0, pad = opennsfw2_1_conv_stage0_block0_branch2b_1_convolutionx_pad_0, pad_type = opennsfw2_1_conv_stage0_block0_branch2b_1_convolutionx_pad_type_0, strides = opennsfw2_1_conv_stage0_block0_branch2b_1_convolutionx_strides_0, weight = const_219_to_fp16, x = opennsfw2_1_activation_stage0_block0_branch2a_1_Relu_cast_fp16)[name = tensor<string, []>("opennsfw2_1_bn_stage0_block0_branch2b_1_batchnorm_add_1_cast_fp16")];
            tensor<fp16, [1, 32, 56, 56]> opennsfw2_1_activation_stage0_block0_branch2b_1_Relu_cast_fp16 = relu(x = opennsfw2_1_bn_stage0_block0_branch2b_1_batchnorm_add_1_cast_fp16)[name = tensor<string, []>("opennsfw2_1_activation_stage0_block0_branch2b_1_Relu_cast_fp16")];
            tensor<string, []> opennsfw2_1_conv_stage0_block0_branch2c_1_convolutionx_pad_type_0 = const()[name = tensor<string, []>("opennsfw2_1_conv_stage0_block0_branch2c_1_convolutionx_pad_type_0"), val = tensor<string, []>("same")];
            tensor<int32, [2]> opennsfw2_1_conv_stage0_block0_branch2c_1_convolutionx_strides_0 = const()[name = tensor<string, []>("opennsfw2_1_conv_stage0_block0_branch2c_1_convolutionx_strides_0"), val = tensor<int32, [2]>([1, 1])];
            tensor<int32, [2]> opennsfw2_1_conv_stage0_block0_branch2c_1_convolutionx_dilations_0 = const()[name = tensor<string, []>("opennsfw2_1_conv_stage0_block0_branch2c_1_convolutionx_dilations_0"), val = tensor<int32, [2]>([1, 1])];
            tensor<int32, []> opennsfw2_1_conv_stage0_block0_branch2c_1_convolutionx_groups_0 = const()[name = tensor<string, []>("opennsfw2_1_conv_stage0_block0_branch2c_1_convolutionx_groups_0"), val = tensor<int32, []>(1)];
            tensor<int32, [4]> opennsfw2_1_conv_stage0_block0_branch2c_1_convolutionx_pad_0 = const()[name = tensor<string, []>("opennsfw2_1_conv_stage0_block0_branch2c_1_convolutionx_pad_0"), val = tensor<int32, [4]>([0, 0, 0, 0])];
            tensor<fp16, [128, 32, 1, 1]> const_221_to_fp16 = const()[name = tensor<string, []>("const_221_to_fp16"), val = tensor<fp16, [128, 32, 1, 1]>(BLOBFILE(path = tensor<string, []>("@model_path/weights/weight.bin"), offset = tensor<uint64, []>(58816)))];
            tensor<fp16, [128]> const_222_to_fp16 = const()[name = tensor<string, []>("const_222_to_fp16"), val = tensor<fp16, [128]>(BLOBFILE(path = tensor<string, []>("@model_path/weights/weight.bin"), offset = tensor<uint64, []>(67072)))];
            tensor<fp16, [1, 128, 56, 56]> opennsfw2_1_bn_stage0_block0_branch2c_1_batchnorm_add_1_cast_fp16 = conv(bias = const_222_to_fp16, dilations = opennsfw2_1_conv_stage0_block0_branch2c_1_convolutionx_dilations_0, groups = opennsfw2_1_conv_stage0_block0_branch2c_1_convolutionx_groups_0, pad = opennsfw2_1_conv_stage0_block0_branch2c_1_convolutionx_pad_0, pad_type = opennsfw2_1_conv_stage0_block0_branch2c_1_convolutionx_pad_type_0, strides = opennsfw2_1_conv_stage0_block0_branch2c_1_convolutionx_strides_0, weight = const_221_to_fp16, x = opennsfw2_1_activation_stage0_block0_branch2b_1_Relu_cast_fp16)[name = tensor<string, []>("opennsfw2_1_bn_stage0_block0_branch2c_1_batchnorm_add_1_cast_fp16")];
            tensor<fp16, [1, 128, 56, 56]> opennsfw2_1_add_1_Add_cast_fp16 = add(x = opennsfw2_1_bn_stage0_block0_branch2c_1_batchnorm_add_1_cast_fp16, y = opennsfw2_1_bn_stage0_block0_proj_shortcut_1_batchnorm_add_1_cast_fp16)[name = tensor<string, []>("opennsfw2_1_add_1_Add_cast_fp16")];
            tensor<fp16, [1, 128, 56, 56]> opennsfw2_1_activation_stage0_block0_1_Relu_cast_fp16 = relu(x = opennsfw2_1_add_1_Add_cast_fp16)[name = tensor<string, []>("opennsfw2_1_activation_stage0_block0_1_Relu_cast_fp16")];
            tensor<string, []> opennsfw2_1_conv_stage0_block1_branch2a_1_convolutionx_pad_type_0 = const()[name = tensor<string, []>("opennsfw2_1_conv_stage0_block1_branch2a_1_convolutionx_pad_type_0"), val = tensor<string, []>("same")];
            tensor<int32, [2]> opennsfw2_1_conv_stage0_block1_branch2a_1_convolutionx_strides_0 = const()[name = tensor<string, []>("opennsfw2_1_conv_stage0_block1_branch2a_1_convolutionx_strides_0"), val = tensor<int32, [2]>([1, 1])];
            tensor<int32, [2]> opennsfw2_1_conv_stage0_block1_branch2a_1_convolutionx_dilations_0 = const()[name = tensor<string, []>("opennsfw2_1_conv_stage0_block1_branch2a_1_convolutionx_dilations_0"), val = tensor<int32, [2]>([1, 1])];
            tensor<int32, []> opennsfw2_1_conv_stage0_block1_branch2a_1_convolutionx_groups_0 = const()[name = tensor<string, []>("opennsfw2_1_conv_stage0_block1_branch2a_1_convolutionx_groups_0"), val = tensor<int32, []>(1)];
            tensor<int32, [4]> opennsfw2_1_conv_stage0_block1_branch2a_1_convolutionx_pad_0 = const()[name = tensor<string, []>("opennsfw2_1_conv_stage0_block1_branch2a_1_convolutionx_pad_0"), val = tensor<int32, [4]>([0, 0, 0, 0])];
            tensor<fp16, [32, 128, 1, 1]> const_223_to_fp16 = const()[name = tensor<string, []>("const_223_to_fp16"), val = tensor<fp16, [32, 128, 1, 1]>(BLOBFILE(path = tensor<string, []>("@model_path/weights/weight.bin"), offset = tensor<uint64, []>(67392)))];
            tensor<fp16, [32]> const_224_to_fp16 = const()[name = tensor<string, []>("const_224_to_fp16"), val = tensor<fp16, [32]>(BLOBFILE(path = tensor<string, []>("@model_path/weights/weight.bin"), offset = tensor<uint64, []>(75648)))];
            tensor<fp16, [1, 32, 56, 56]> opennsfw2_1_bn_stage0_block1_branch2a_1_batchnorm_add_1_cast_fp16 = conv(bias = const_224_to_fp16, dilations = opennsfw2_1_conv_stage0_block1_branch2a_1_convolutionx_dilations_0, groups = opennsfw2_1_conv_stage0_block1_branch2a_1_convolutionx_groups_0, pad = opennsfw2_1_conv_stage0_block1_branch2a_1_convolutionx_pad_0, pad_type = opennsfw2_1_conv_stage0_block1_branch2a_1_convolutionx_pad_type_0, strides = opennsfw2_1_conv_stage0_block1_branch2a_1_convolutionx_strides_0, weight = const_223_to_fp16, x = opennsfw2_1_activation_stage0_block0_1_Relu_cast_fp16)[name = tensor<string, []>("opennsfw2_1_bn_stage0_block1_branch2a_1_batchnorm_add_1_cast_fp16")];
            tensor<fp16, [1, 32, 56, 56]> opennsfw2_1_activation_stage0_block1_branch2a_1_Relu_cast_fp16 = relu(x = opennsfw2_1_bn_stage0_block1_branch2a_1_batchnorm_add_1_cast_fp16)[name = tensor<string, []>("opennsfw2_1_activation_stage0_block1_branch2a_1_Relu_cast_fp16")];
            tensor<string, []> opennsfw2_1_conv_stage0_block1_branch2b_1_convolutionx_pad_type_0 = const()[name = tensor<string, []>("opennsfw2_1_conv_stage0_block1_branch2b_1_convolutionx_pad_type_0"), val = tensor<string, []>("same")];
            tensor<int32, [2]> opennsfw2_1_conv_stage0_block1_branch2b_1_convolutionx_strides_0 = const()[name = tensor<string, []>("opennsfw2_1_conv_stage0_block1_branch2b_1_convolutionx_strides_0"), val = tensor<int32, [2]>([1, 1])];
            tensor<int32, [2]> opennsfw2_1_conv_stage0_block1_branch2b_1_convolutionx_dilations_0 = const()[name = tensor<string, []>("opennsfw2_1_conv_stage0_block1_branch2b_1_convolutionx_dilations_0"), val = tensor<int32, [2]>([1, 1])];
            tensor<int32, []> opennsfw2_1_conv_stage0_block1_branch2b_1_convolutionx_groups_0 = const()[name = tensor<string, []>("opennsfw2_1_conv_stage0_block1_branch2b_1_convolutionx_groups_0"), val = tensor<int32, []>(1)];
            tensor<int32, [4]> opennsfw2_1_conv_stage0_block1_branch2b_1_convolutionx_pad_0 = const()[name = tensor<string, []>("opennsfw2_1_conv_stage0_block1_branch2b_1_convolutionx_pad_0"), val = tensor<int32, [4]>([0, 0, 0, 0])];
            tensor<fp16, [32, 32, 3, 3]> const_225_to_fp16 = const()[name = tensor<string, []>("const_225_to_fp16"), val = tensor<fp16, [32, 32, 3, 3]>(BLOBFILE(path = tensor<string, []>("@model_path/weights/weight.bin"), offset = tensor<uint64, []>(75776)))];
            tensor<fp16, [32]> const_226_to_fp16 = const()[name = tensor<string, []>("const_226_to_fp16"), val = tensor<fp16, [32]>(BLOBFILE(path = tensor<string, []>("@model_path/weights/weight.bin"), offset = tensor<uint64, []>(94272)))];
            tensor<fp16, [1, 32, 56, 56]> opennsfw2_1_bn_stage0_block1_branch2b_1_batchnorm_add_1_cast_fp16 = conv(bias = const_226_to_fp16, dilations = opennsfw2_1_conv_stage0_block1_branch2b_1_convolutionx_dilations_0, groups = opennsfw2_1_conv_stage0_block1_branch2b_1_convolutionx_groups_0, pad = opennsfw2_1_conv_stage0_block1_branch2b_1_convolutionx_pad_0, pad_type = opennsfw2_1_conv_stage0_block1_branch2b_1_convolutionx_pad_type_0, strides = opennsfw2_1_conv_stage0_block1_branch2b_1_convolutionx_strides_0, weight = const_225_to_fp16, x = opennsfw2_1_activation_stage0_block1_branch2a_1_Relu_cast_fp16)[name = tensor<string, []>("opennsfw2_1_bn_stage0_block1_branch2b_1_batchnorm_add_1_cast_fp16")];
            tensor<fp16, [1, 32, 56, 56]> opennsfw2_1_activation_stage0_block1_branch2b_1_Relu_cast_fp16 = relu(x = opennsfw2_1_bn_stage0_block1_branch2b_1_batchnorm_add_1_cast_fp16)[name = tensor<string, []>("opennsfw2_1_activation_stage0_block1_branch2b_1_Relu_cast_fp16")];
            tensor<string, []> opennsfw2_1_conv_stage0_block1_branch2c_1_convolutionx_pad_type_0 = const()[name = tensor<string, []>("opennsfw2_1_conv_stage0_block1_branch2c_1_convolutionx_pad_type_0"), val = tensor<string, []>("same")];
            tensor<int32, [2]> opennsfw2_1_conv_stage0_block1_branch2c_1_convolutionx_strides_0 = const()[name = tensor<string, []>("opennsfw2_1_conv_stage0_block1_branch2c_1_convolutionx_strides_0"), val = tensor<int32, [2]>([1, 1])];
            tensor<int32, [2]> opennsfw2_1_conv_stage0_block1_branch2c_1_convolutionx_dilations_0 = const()[name = tensor<string, []>("opennsfw2_1_conv_stage0_block1_branch2c_1_convolutionx_dilations_0"), val = tensor<int32, [2]>([1, 1])];
            tensor<int32, []> opennsfw2_1_conv_stage0_block1_branch2c_1_convolutionx_groups_0 = const()[name = tensor<string, []>("opennsfw2_1_conv_stage0_block1_branch2c_1_convolutionx_groups_0"), val = tensor<int32, []>(1)];
            tensor<int32, [4]> opennsfw2_1_conv_stage0_block1_branch2c_1_convolutionx_pad_0 = const()[name = tensor<string, []>("opennsfw2_1_conv_stage0_block1_branch2c_1_convolutionx_pad_0"), val = tensor<int32, [4]>([0, 0, 0, 0])];
            tensor<fp16, [128, 32, 1, 1]> const_227_to_fp16 = const()[name = tensor<string, []>("const_227_to_fp16"), val = tensor<fp16, [128, 32, 1, 1]>(BLOBFILE(path = tensor<string, []>("@model_path/weights/weight.bin"), offset = tensor<uint64, []>(94400)))];
            tensor<fp16, [128]> const_228_to_fp16 = const()[name = tensor<string, []>("const_228_to_fp16"), val = tensor<fp16, [128]>(BLOBFILE(path = tensor<string, []>("@model_path/weights/weight.bin"), offset = tensor<uint64, []>(102656)))];
            tensor<fp16, [1, 128, 56, 56]> opennsfw2_1_bn_stage0_block1_branch2c_1_batchnorm_add_1_cast_fp16 = conv(bias = const_228_to_fp16, dilations = opennsfw2_1_conv_stage0_block1_branch2c_1_convolutionx_dilations_0, groups = opennsfw2_1_conv_stage0_block1_branch2c_1_convolutionx_groups_0, pad = opennsfw2_1_conv_stage0_block1_branch2c_1_convolutionx_pad_0, pad_type = opennsfw2_1_conv_stage0_block1_branch2c_1_convolutionx_pad_type_0, strides = opennsfw2_1_conv_stage0_block1_branch2c_1_convolutionx_strides_0, weight = const_227_to_fp16, x = opennsfw2_1_activation_stage0_block1_branch2b_1_Relu_cast_fp16)[name = tensor<string, []>("opennsfw2_1_bn_stage0_block1_branch2c_1_batchnorm_add_1_cast_fp16")];
            tensor<fp16, [1, 128, 56, 56]> opennsfw2_1_add_1_2_Add_cast_fp16 = add(x = opennsfw2_1_bn_stage0_block1_branch2c_1_batchnorm_add_1_cast_fp16, y = opennsfw2_1_activation_stage0_block0_1_Relu_cast_fp16)[name = tensor<string, []>("opennsfw2_1_add_1_2_Add_cast_fp16")];
            tensor<fp16, [1, 128, 56, 56]> opennsfw2_1_activation_stage0_block1_1_Relu_cast_fp16 = relu(x = opennsfw2_1_add_1_2_Add_cast_fp16)[name = tensor<string, []>("opennsfw2_1_activation_stage0_block1_1_Relu_cast_fp16")];
            tensor<string, []> opennsfw2_1_conv_stage0_block2_branch2a_1_convolutionx_pad_type_0 = const()[name = tensor<string, []>("opennsfw2_1_conv_stage0_block2_branch2a_1_convolutionx_pad_type_0"), val = tensor<string, []>("same")];
            tensor<int32, [2]> opennsfw2_1_conv_stage0_block2_branch2a_1_convolutionx_strides_0 = const()[name = tensor<string, []>("opennsfw2_1_conv_stage0_block2_branch2a_1_convolutionx_strides_0"), val = tensor<int32, [2]>([1, 1])];
            tensor<int32, [2]> opennsfw2_1_conv_stage0_block2_branch2a_1_convolutionx_dilations_0 = const()[name = tensor<string, []>("opennsfw2_1_conv_stage0_block2_branch2a_1_convolutionx_dilations_0"), val = tensor<int32, [2]>([1, 1])];
            tensor<int32, []> opennsfw2_1_conv_stage0_block2_branch2a_1_convolutionx_groups_0 = const()[name = tensor<string, []>("opennsfw2_1_conv_stage0_block2_branch2a_1_convolutionx_groups_0"), val = tensor<int32, []>(1)];
            tensor<int32, [4]> opennsfw2_1_conv_stage0_block2_branch2a_1_convolutionx_pad_0 = const()[name = tensor<string, []>("opennsfw2_1_conv_stage0_block2_branch2a_1_convolutionx_pad_0"), val = tensor<int32, [4]>([0, 0, 0, 0])];
            tensor<fp16, [32, 128, 1, 1]> const_229_to_fp16 = const()[name = tensor<string, []>("const_229_to_fp16"), val = tensor<fp16, [32, 128, 1, 1]>(BLOBFILE(path = tensor<string, []>("@model_path/weights/weight.bin"), offset = tensor<uint64, []>(102976)))];
            tensor<fp16, [32]> const_230_to_fp16 = const()[name = tensor<string, []>("const_230_to_fp16"), val = tensor<fp16, [32]>(BLOBFILE(path = tensor<string, []>("@model_path/weights/weight.bin"), offset = tensor<uint64, []>(111232)))];
            tensor<fp16, [1, 32, 56, 56]> opennsfw2_1_bn_stage0_block2_branch2a_1_batchnorm_add_1_cast_fp16 = conv(bias = const_230_to_fp16, dilations = opennsfw2_1_conv_stage0_block2_branch2a_1_convolutionx_dilations_0, groups = opennsfw2_1_conv_stage0_block2_branch2a_1_convolutionx_groups_0, pad = opennsfw2_1_conv_stage0_block2_branch2a_1_convolutionx_pad_0, pad_type = opennsfw2_1_conv_stage0_block2_branch2a_1_convolutionx_pad_type_0, strides = opennsfw2_1_conv_stage0_block2_branch2a_1_convolutionx_strides_0, weight = const_229_to_fp16, x = opennsfw2_1_activation_stage0_block1_1_Relu_cast_fp16)[name = tensor<string, []>("opennsfw2_1_bn_stage0_block2_branch2a_1_batchnorm_add_1_cast_fp16")];
            tensor<fp16, [1, 32, 56, 56]> opennsfw2_1_activation_stage0_block2_branch2a_1_Relu_cast_fp16 = relu(x = opennsfw2_1_bn_stage0_block2_branch2a_1_batchnorm_add_1_cast_fp16)[name = tensor<string, []>("opennsfw2_1_activation_stage0_block2_branch2a_1_Relu_cast_fp16")];
            tensor<string, []> opennsfw2_1_conv_stage0_block2_branch2b_1_convolutionx_pad_type_0 = const()[name = tensor<string, []>("opennsfw2_1_conv_stage0_block2_branch2b_1_convolutionx_pad_type_0"), val = tensor<string, []>("same")];
            tensor<int32, [2]> opennsfw2_1_conv_stage0_block2_branch2b_1_convolutionx_strides_0 = const()[name = tensor<string, []>("opennsfw2_1_conv_stage0_block2_branch2b_1_convolutionx_strides_0"), val = tensor<int32, [2]>([1, 1])];
            tensor<int32, [2]> opennsfw2_1_conv_stage0_block2_branch2b_1_convolutionx_dilations_0 = const()[name = tensor<string, []>("opennsfw2_1_conv_stage0_block2_branch2b_1_convolutionx_dilations_0"), val = tensor<int32, [2]>([1, 1])];
            tensor<int32, []> opennsfw2_1_conv_stage0_block2_branch2b_1_convolutionx_groups_0 = const()[name = tensor<string, []>("opennsfw2_1_conv_stage0_block2_branch2b_1_convolutionx_groups_0"), val = tensor<int32, []>(1)];
            tensor<int32, [4]> opennsfw2_1_conv_stage0_block2_branch2b_1_convolutionx_pad_0 = const()[name = tensor<string, []>("opennsfw2_1_conv_stage0_block2_branch2b_1_convolutionx_pad_0"), val = tensor<int32, [4]>([0, 0, 0, 0])];
            tensor<fp16, [32, 32, 3, 3]> const_231_to_fp16 = const()[name = tensor<string, []>("const_231_to_fp16"), val = tensor<fp16, [32, 32, 3, 3]>(BLOBFILE(path = tensor<string, []>("@model_path/weights/weight.bin"), offset = tensor<uint64, []>(111360)))];
            tensor<fp16, [32]> const_232_to_fp16 = const()[name = tensor<string, []>("const_232_to_fp16"), val = tensor<fp16, [32]>(BLOBFILE(path = tensor<string, []>("@model_path/weights/weight.bin"), offset = tensor<uint64, []>(129856)))];
            tensor<fp16, [1, 32, 56, 56]> opennsfw2_1_bn_stage0_block2_branch2b_1_batchnorm_add_1_cast_fp16 = conv(bias = const_232_to_fp16, dilations = opennsfw2_1_conv_stage0_block2_branch2b_1_convolutionx_dilations_0, groups = opennsfw2_1_conv_stage0_block2_branch2b_1_convolutionx_groups_0, pad = opennsfw2_1_conv_stage0_block2_branch2b_1_convolutionx_pad_0, pad_type = opennsfw2_1_conv_stage0_block2_branch2b_1_convolutionx_pad_type_0, strides = opennsfw2_1_conv_stage0_block2_branch2b_1_convolutionx_strides_0, weight = const_231_to_fp16, x = opennsfw2_1_activation_stage0_block2_branch2a_1_Relu_cast_fp16)[name = tensor<string, []>("opennsfw2_1_bn_stage0_block2_branch2b_1_batchnorm_add_1_cast_fp16")];
            tensor<fp16, [1, 32, 56, 56]> opennsfw2_1_activation_stage0_block2_branch2b_1_Relu_cast_fp16 = relu(x = opennsfw2_1_bn_stage0_block2_branch2b_1_batchnorm_add_1_cast_fp16)[name = tensor<string, []>("opennsfw2_1_activation_stage0_block2_branch2b_1_Relu_cast_fp16")];
            tensor<string, []> opennsfw2_1_conv_stage0_block2_branch2c_1_convolutionx_pad_type_0 = const()[name = tensor<string, []>("opennsfw2_1_conv_stage0_block2_branch2c_1_convolutionx_pad_type_0"), val = tensor<string, []>("same")];
            tensor<int32, [2]> opennsfw2_1_conv_stage0_block2_branch2c_1_convolutionx_strides_0 = const()[name = tensor<string, []>("opennsfw2_1_conv_stage0_block2_branch2c_1_convolutionx_strides_0"), val = tensor<int32, [2]>([1, 1])];
            tensor<int32, [2]> opennsfw2_1_conv_stage0_block2_branch2c_1_convolutionx_dilations_0 = const()[name = tensor<string, []>("opennsfw2_1_conv_stage0_block2_branch2c_1_convolutionx_dilations_0"), val = tensor<int32, [2]>([1, 1])];
            tensor<int32, []> opennsfw2_1_conv_stage0_block2_branch2c_1_convolutionx_groups_0 = const()[name = tensor<string, []>("opennsfw2_1_conv_stage0_block2_branch2c_1_convolutionx_groups_0"), val = tensor<int32, []>(1)];
            tensor<int32, [4]> opennsfw2_1_conv_stage0_block2_branch2c_1_convolutionx_pad_0 = const()[name = tensor<string, []>("opennsfw2_1_conv_stage0_block2_branch2c_1_convolutionx_pad_0"), val = tensor<int32, [4]>([0, 0, 0, 0])];
            tensor<fp16, [128, 32, 1, 1]> const_233_to_fp16 = const()[name = tensor<string, []>("const_233_to_fp16"), val = tensor<fp16, [128, 32, 1, 1]>(BLOBFILE(path = tensor<string, []>("@model_path/weights/weight.bin"), offset = tensor<uint64, []>(129984)))];
            tensor<fp16, [128]> const_234_to_fp16 = const()[name = tensor<string, []>("const_234_to_fp16"), val = tensor<fp16, [128]>(BLOBFILE(path = tensor<string, []>("@model_path/weights/weight.bin"), offset = tensor<uint64, []>(138240)))];
            tensor<fp16, [1, 128, 56, 56]> opennsfw2_1_bn_stage0_block2_branch2c_1_batchnorm_add_1_cast_fp16 = conv(bias = const_234_to_fp16, dilations = opennsfw2_1_conv_stage0_block2_branch2c_1_convolutionx_dilations_0, groups = opennsfw2_1_conv_stage0_block2_branch2c_1_convolutionx_groups_0, pad = opennsfw2_1_conv_stage0_block2_branch2c_1_convolutionx_pad_0, pad_type = opennsfw2_1_conv_stage0_block2_branch2c_1_convolutionx_pad_type_0, strides = opennsfw2_1_conv_stage0_block2_branch2c_1_convolutionx_strides_0, weight = const_233_to_fp16, x = opennsfw2_1_activation_stage0_block2_branch2b_1_Relu_cast_fp16)[name = tensor<string, []>("opennsfw2_1_bn_stage0_block2_branch2c_1_batchnorm_add_1_cast_fp16")];
            tensor<fp16, [1, 128, 56, 56]> opennsfw2_1_add_2_1_Add_cast_fp16 = add(x = opennsfw2_1_bn_stage0_block2_branch2c_1_batchnorm_add_1_cast_fp16, y = opennsfw2_1_activation_stage0_block1_1_Relu_cast_fp16)[name = tensor<string, []>("opennsfw2_1_add_2_1_Add_cast_fp16")];
            tensor<fp16, [1, 128, 56, 56]> opennsfw2_1_activation_stage0_block2_1_Relu_cast_fp16 = relu(x = opennsfw2_1_add_2_1_Add_cast_fp16)[name = tensor<string, []>("opennsfw2_1_activation_stage0_block2_1_Relu_cast_fp16")];
            tensor<string, []> opennsfw2_1_conv_stage1_block0_branch2a_1_convolutionx_pad_type_0 = const()[name = tensor<string, []>("opennsfw2_1_conv_stage1_block0_branch2a_1_convolutionx_pad_type_0"), val = tensor<string, []>("same")];
            tensor<int32, [2]> opennsfw2_1_conv_stage1_block0_branch2a_1_convolutionx_strides_0 = const()[name = tensor<string, []>("opennsfw2_1_conv_stage1_block0_branch2a_1_convolutionx_strides_0"), val = tensor<int32, [2]>([2, 2])];
            tensor<int32, [2]> opennsfw2_1_conv_stage1_block0_branch2a_1_convolutionx_dilations_0 = const()[name = tensor<string, []>("opennsfw2_1_conv_stage1_block0_branch2a_1_convolutionx_dilations_0"), val = tensor<int32, [2]>([1, 1])];
            tensor<int32, []> opennsfw2_1_conv_stage1_block0_branch2a_1_convolutionx_groups_0 = const()[name = tensor<string, []>("opennsfw2_1_conv_stage1_block0_branch2a_1_convolutionx_groups_0"), val = tensor<int32, []>(1)];
            tensor<int32, [4]> opennsfw2_1_conv_stage1_block0_branch2a_1_convolutionx_pad_0 = const()[name = tensor<string, []>("opennsfw2_1_conv_stage1_block0_branch2a_1_convolutionx_pad_0"), val = tensor<int32, [4]>([0, 0, 0, 0])];
            tensor<fp16, [64, 128, 1, 1]> const_235_to_fp16 = const()[name = tensor<string, []>("const_235_to_fp16"), val = tensor<fp16, [64, 128, 1, 1]>(BLOBFILE(path = tensor<string, []>("@model_path/weights/weight.bin"), offset = tensor<uint64, []>(138560)))];
            tensor<fp16, [64]> const_236_to_fp16 = const()[name = tensor<string, []>("const_236_to_fp16"), val = tensor<fp16, [64]>(BLOBFILE(path = tensor<string, []>("@model_path/weights/weight.bin"), offset = tensor<uint64, []>(155008)))];
            tensor<fp16, [1, 64, 28, 28]> opennsfw2_1_bn_stage1_block0_branch2a_1_batchnorm_add_1_cast_fp16 = conv(bias = const_236_to_fp16, dilations = opennsfw2_1_conv_stage1_block0_branch2a_1_convolutionx_dilations_0, groups = opennsfw2_1_conv_stage1_block0_branch2a_1_convolutionx_groups_0, pad = opennsfw2_1_conv_stage1_block0_branch2a_1_convolutionx_pad_0, pad_type = opennsfw2_1_conv_stage1_block0_branch2a_1_convolutionx_pad_type_0, strides = opennsfw2_1_conv_stage1_block0_branch2a_1_convolutionx_strides_0, weight = const_235_to_fp16, x = opennsfw2_1_activation_stage0_block2_1_Relu_cast_fp16)[name = tensor<string, []>("opennsfw2_1_bn_stage1_block0_branch2a_1_batchnorm_add_1_cast_fp16")];
            tensor<string, []> opennsfw2_1_conv_stage1_block0_proj_shortcut_1_convolutionx_pad_type_0 = const()[name = tensor<string, []>("opennsfw2_1_conv_stage1_block0_proj_shortcut_1_convolutionx_pad_type_0"), val = tensor<string, []>("same")];
            tensor<int32, [2]> opennsfw2_1_conv_stage1_block0_proj_shortcut_1_convolutionx_strides_0 = const()[name = tensor<string, []>("opennsfw2_1_conv_stage1_block0_proj_shortcut_1_convolutionx_strides_0"), val = tensor<int32, [2]>([2, 2])];
            tensor<int32, [2]> opennsfw2_1_conv_stage1_block0_proj_shortcut_1_convolutionx_dilations_0 = const()[name = tensor<string, []>("opennsfw2_1_conv_stage1_block0_proj_shortcut_1_convolutionx_dilations_0"), val = tensor<int32, [2]>([1, 1])];
            tensor<int32, []> opennsfw2_1_conv_stage1_block0_proj_shortcut_1_convolutionx_groups_0 = const()[name = tensor<string, []>("opennsfw2_1_conv_stage1_block0_proj_shortcut_1_convolutionx_groups_0"), val = tensor<int32, []>(1)];
            tensor<int32, [4]> opennsfw2_1_conv_stage1_block0_proj_shortcut_1_convolutionx_pad_0 = const()[name = tensor<string, []>("opennsfw2_1_conv_stage1_block0_proj_shortcut_1_convolutionx_pad_0"), val = tensor<int32, [4]>([0, 0, 0, 0])];
            tensor<fp16, [256, 128, 1, 1]> const_237_to_fp16 = const()[name = tensor<string, []>("const_237_to_fp16"), val = tensor<fp16, [256, 128, 1, 1]>(BLOBFILE(path = tensor<string, []>("@model_path/weights/weight.bin"), offset = tensor<uint64, []>(155200)))];
            tensor<fp16, [256]> const_238_to_fp16 = const()[name = tensor<string, []>("const_238_to_fp16"), val = tensor<fp16, [256]>(BLOBFILE(path = tensor<string, []>("@model_path/weights/weight.bin"), offset = tensor<uint64, []>(220800)))];
            tensor<fp16, [1, 256, 28, 28]> opennsfw2_1_bn_stage1_block0_proj_shortcut_1_batchnorm_add_1_cast_fp16 = conv(bias = const_238_to_fp16, dilations = opennsfw2_1_conv_stage1_block0_proj_shortcut_1_convolutionx_dilations_0, groups = opennsfw2_1_conv_stage1_block0_proj_shortcut_1_convolutionx_groups_0, pad = opennsfw2_1_conv_stage1_block0_proj_shortcut_1_convolutionx_pad_0, pad_type = opennsfw2_1_conv_stage1_block0_proj_shortcut_1_convolutionx_pad_type_0, strides = opennsfw2_1_conv_stage1_block0_proj_shortcut_1_convolutionx_strides_0, weight = const_237_to_fp16, x = opennsfw2_1_activation_stage0_block2_1_Relu_cast_fp16)[name = tensor<string, []>("opennsfw2_1_bn_stage1_block0_proj_shortcut_1_batchnorm_add_1_cast_fp16")];
            tensor<fp16, [1, 64, 28, 28]> opennsfw2_1_activation_stage1_block0_branch2a_1_Relu_cast_fp16 = relu(x = opennsfw2_1_bn_stage1_block0_branch2a_1_batchnorm_add_1_cast_fp16)[name = tensor<string, []>("opennsfw2_1_activation_stage1_block0_branch2a_1_Relu_cast_fp16")];
            tensor<string, []> opennsfw2_1_conv_stage1_block0_branch2b_1_convolutionx_pad_type_0 = const()[name = tensor<string, []>("opennsfw2_1_conv_stage1_block0_branch2b_1_convolutionx_pad_type_0"), val = tensor<string, []>("same")];
            tensor<int32, [2]> opennsfw2_1_conv_stage1_block0_branch2b_1_convolutionx_strides_0 = const()[name = tensor<string, []>("opennsfw2_1_conv_stage1_block0_branch2b_1_convolutionx_strides_0"), val = tensor<int32, [2]>([1, 1])];
            tensor<int32, [2]> opennsfw2_1_conv_stage1_block0_branch2b_1_convolutionx_dilations_0 = const()[name = tensor<string, []>("opennsfw2_1_conv_stage1_block0_branch2b_1_convolutionx_dilations_0"), val = tensor<int32, [2]>([1, 1])];
            tensor<int32, []> opennsfw2_1_conv_stage1_block0_branch2b_1_convolutionx_groups_0 = const()[name = tensor<string, []>("opennsfw2_1_conv_stage1_block0_branch2b_1_convolutionx_groups_0"), val = tensor<int32, []>(1)];
            tensor<int32, [4]> opennsfw2_1_conv_stage1_block0_branch2b_1_convolutionx_pad_0 = const()[name = tensor<string, []>("opennsfw2_1_conv_stage1_block0_branch2b_1_convolutionx_pad_0"), val = tensor<int32, [4]>([0, 0, 0, 0])];
            tensor<fp16, [64, 64, 3, 3]> const_239_to_fp16 = const()[name = tensor<string, []>("const_239_to_fp16"), val = tensor<fp16, [64, 64, 3, 3]>(BLOBFILE(path = tensor<string, []>("@model_path/weights/weight.bin"), offset = tensor<uint64, []>(221376)))];
            tensor<fp16, [64]> const_240_to_fp16 = const()[name = tensor<string, []>("const_240_to_fp16"), val = tensor<fp16, [64]>(BLOBFILE(path = tensor<string, []>("@model_path/weights/weight.bin"), offset = tensor<uint64, []>(295168)))];
            tensor<fp16, [1, 64, 28, 28]> opennsfw2_1_bn_stage1_block0_branch2b_1_batchnorm_add_1_cast_fp16 = conv(bias = const_240_to_fp16, dilations = opennsfw2_1_conv_stage1_block0_branch2b_1_convolutionx_dilations_0, groups = opennsfw2_1_conv_stage1_block0_branch2b_1_convolutionx_groups_0, pad = opennsfw2_1_conv_stage1_block0_branch2b_1_convolutionx_pad_0, pad_type = opennsfw2_1_conv_stage1_block0_branch2b_1_convolutionx_pad_type_0, strides = opennsfw2_1_conv_stage1_block0_branch2b_1_convolutionx_strides_0, weight = const_239_to_fp16, x = opennsfw2_1_activation_stage1_block0_branch2a_1_Relu_cast_fp16)[name = tensor<string, []>("opennsfw2_1_bn_stage1_block0_branch2b_1_batchnorm_add_1_cast_fp16")];
            tensor<fp16, [1, 64, 28, 28]> opennsfw2_1_activation_stage1_block0_branch2b_1_Relu_cast_fp16 = relu(x = opennsfw2_1_bn_stage1_block0_branch2b_1_batchnorm_add_1_cast_fp16)[name = tensor<string, []>("opennsfw2_1_activation_stage1_block0_branch2b_1_Relu_cast_fp16")];
            tensor<string, []> opennsfw2_1_conv_stage1_block0_branch2c_1_convolutionx_pad_type_0 = const()[name = tensor<string, []>("opennsfw2_1_conv_stage1_block0_branch2c_1_convolutionx_pad_type_0"), val = tensor<string, []>("same")];
            tensor<int32, [2]> opennsfw2_1_conv_stage1_block0_branch2c_1_convolutionx_strides_0 = const()[name = tensor<string, []>("opennsfw2_1_conv_stage1_block0_branch2c_1_convolutionx_strides_0"), val = tensor<int32, [2]>([1, 1])];
            tensor<int32, [2]> opennsfw2_1_conv_stage1_block0_branch2c_1_convolutionx_dilations_0 = const()[name = tensor<string, []>("opennsfw2_1_conv_stage1_block0_branch2c_1_convolutionx_dilations_0"), val = tensor<int32, [2]>([1, 1])];
            tensor<int32, []> opennsfw2_1_conv_stage1_block0_branch2c_1_convolutionx_groups_0 = const()[name = tensor<string, []>("opennsfw2_1_conv_stage1_block0_branch2c_1_convolutionx_groups_0"), val = tensor<int32, []>(1)];
            tensor<int32, [4]> opennsfw2_1_conv_stage1_block0_branch2c_1_convolutionx_pad_0 = const()[name = tensor<string, []>("opennsfw2_1_conv_stage1_block0_branch2c_1_convolutionx_pad_0"), val = tensor<int32, [4]>([0, 0, 0, 0])];
            tensor<fp16, [256, 64, 1, 1]> const_241_to_fp16 = const()[name = tensor<string, []>("const_241_to_fp16"), val = tensor<fp16, [256, 64, 1, 1]>(BLOBFILE(path = tensor<string, []>("@model_path/weights/weight.bin"), offset = tensor<uint64, []>(295360)))];
            tensor<fp16, [256]> const_242_to_fp16 = const()[name = tensor<string, []>("const_242_to_fp16"), val = tensor<fp16, [256]>(BLOBFILE(path = tensor<string, []>("@model_path/weights/weight.bin"), offset = tensor<uint64, []>(328192)))];
            tensor<fp16, [1, 256, 28, 28]> opennsfw2_1_bn_stage1_block0_branch2c_1_batchnorm_add_1_cast_fp16 = conv(bias = const_242_to_fp16, dilations = opennsfw2_1_conv_stage1_block0_branch2c_1_convolutionx_dilations_0, groups = opennsfw2_1_conv_stage1_block0_branch2c_1_convolutionx_groups_0, pad = opennsfw2_1_conv_stage1_block0_branch2c_1_convolutionx_pad_0, pad_type = opennsfw2_1_conv_stage1_block0_branch2c_1_convolutionx_pad_type_0, strides = opennsfw2_1_conv_stage1_block0_branch2c_1_convolutionx_strides_0, weight = const_241_to_fp16, x = opennsfw2_1_activation_stage1_block0_branch2b_1_Relu_cast_fp16)[name = tensor<string, []>("opennsfw2_1_bn_stage1_block0_branch2c_1_batchnorm_add_1_cast_fp16")];
            tensor<fp16, [1, 256, 28, 28]> opennsfw2_1_add_3_1_Add_cast_fp16 = add(x = opennsfw2_1_bn_stage1_block0_branch2c_1_batchnorm_add_1_cast_fp16, y = opennsfw2_1_bn_stage1_block0_proj_shortcut_1_batchnorm_add_1_cast_fp16)[name = tensor<string, []>("opennsfw2_1_add_3_1_Add_cast_fp16")];
            tensor<fp16, [1, 256, 28, 28]> opennsfw2_1_activation_stage1_block0_1_Relu_cast_fp16 = relu(x = opennsfw2_1_add_3_1_Add_cast_fp16)[name = tensor<string, []>("opennsfw2_1_activation_stage1_block0_1_Relu_cast_fp16")];
            tensor<string, []> opennsfw2_1_conv_stage1_block1_branch2a_1_convolutionx_pad_type_0 = const()[name = tensor<string, []>("opennsfw2_1_conv_stage1_block1_branch2a_1_convolutionx_pad_type_0"), val = tensor<string, []>("same")];
            tensor<int32, [2]> opennsfw2_1_conv_stage1_block1_branch2a_1_convolutionx_strides_0 = const()[name = tensor<string, []>("opennsfw2_1_conv_stage1_block1_branch2a_1_convolutionx_strides_0"), val = tensor<int32, [2]>([1, 1])];
            tensor<int32, [2]> opennsfw2_1_conv_stage1_block1_branch2a_1_convolutionx_dilations_0 = const()[name = tensor<string, []>("opennsfw2_1_conv_stage1_block1_branch2a_1_convolutionx_dilations_0"), val = tensor<int32, [2]>([1, 1])];
            tensor<int32, []> opennsfw2_1_conv_stage1_block1_branch2a_1_convolutionx_groups_0 = const()[name = tensor<string, []>("opennsfw2_1_conv_stage1_block1_branch2a_1_convolutionx_groups_0"), val = tensor<int32, []>(1)];
            tensor<int32, [4]> opennsfw2_1_conv_stage1_block1_branch2a_1_convolutionx_pad_0 = const()[name = tensor<string, []>("opennsfw2_1_conv_stage1_block1_branch2a_1_convolutionx_pad_0"), val = tensor<int32, [4]>([0, 0, 0, 0])];
            tensor<fp16, [64, 256, 1, 1]> const_243_to_fp16 = const()[name = tensor<string, []>("const_243_to_fp16"), val = tensor<fp16, [64, 256, 1, 1]>(BLOBFILE(path = tensor<string, []>("@model_path/weights/weight.bin"), offset = tensor<uint64, []>(328768)))];
            tensor<fp16, [64]> const_244_to_fp16 = const()[name = tensor<string, []>("const_244_to_fp16"), val = tensor<fp16, [64]>(BLOBFILE(path = tensor<string, []>("@model_path/weights/weight.bin"), offset = tensor<uint64, []>(361600)))];
            tensor<fp16, [1, 64, 28, 28]> opennsfw2_1_bn_stage1_block1_branch2a_1_batchnorm_add_1_cast_fp16 = conv(bias = const_244_to_fp16, dilations = opennsfw2_1_conv_stage1_block1_branch2a_1_convolutionx_dilations_0, groups = opennsfw2_1_conv_stage1_block1_branch2a_1_convolutionx_groups_0, pad = opennsfw2_1_conv_stage1_block1_branch2a_1_convolutionx_pad_0, pad_type = opennsfw2_1_conv_stage1_block1_branch2a_1_convolutionx_pad_type_0, strides = opennsfw2_1_conv_stage1_block1_branch2a_1_convolutionx_strides_0, weight = const_243_to_fp16, x = opennsfw2_1_activation_stage1_block0_1_Relu_cast_fp16)[name = tensor<string, []>("opennsfw2_1_bn_stage1_block1_branch2a_1_batchnorm_add_1_cast_fp16")];
            tensor<fp16, [1, 64, 28, 28]> opennsfw2_1_activation_stage1_block1_branch2a_1_Relu_cast_fp16 = relu(x = opennsfw2_1_bn_stage1_block1_branch2a_1_batchnorm_add_1_cast_fp16)[name = tensor<string, []>("opennsfw2_1_activation_stage1_block1_branch2a_1_Relu_cast_fp16")];
            tensor<string, []> opennsfw2_1_conv_stage1_block1_branch2b_1_convolutionx_pad_type_0 = const()[name = tensor<string, []>("opennsfw2_1_conv_stage1_block1_branch2b_1_convolutionx_pad_type_0"), val = tensor<string, []>("same")];
            tensor<int32, [2]> opennsfw2_1_conv_stage1_block1_branch2b_1_convolutionx_strides_0 = const()[name = tensor<string, []>("opennsfw2_1_conv_stage1_block1_branch2b_1_convolutionx_strides_0"), val = tensor<int32, [2]>([1, 1])];
            tensor<int32, [2]> opennsfw2_1_conv_stage1_block1_branch2b_1_convolutionx_dilations_0 = const()[name = tensor<string, []>("opennsfw2_1_conv_stage1_block1_branch2b_1_convolutionx_dilations_0"), val = tensor<int32, [2]>([1, 1])];
            tensor<int32, []> opennsfw2_1_conv_stage1_block1_branch2b_1_convolutionx_groups_0 = const()[name = tensor<string, []>("opennsfw2_1_conv_stage1_block1_branch2b_1_convolutionx_groups_0"), val = tensor<int32, []>(1)];
            tensor<int32, [4]> opennsfw2_1_conv_stage1_block1_branch2b_1_convolutionx_pad_0 = const()[name = tensor<string, []>("opennsfw2_1_conv_stage1_block1_branch2b_1_convolutionx_pad_0"), val = tensor<int32, [4]>([0, 0, 0, 0])];
            tensor<fp16, [64, 64, 3, 3]> const_245_to_fp16 = const()[name = tensor<string, []>("const_245_to_fp16"), val = tensor<fp16, [64, 64, 3, 3]>(BLOBFILE(path = tensor<string, []>("@model_path/weights/weight.bin"), offset = tensor<uint64, []>(361792)))];
            tensor<fp16, [64]> const_246_to_fp16 = const()[name = tensor<string, []>("const_246_to_fp16"), val = tensor<fp16, [64]>(BLOBFILE(path = tensor<string, []>("@model_path/weights/weight.bin"), offset = tensor<uint64, []>(435584)))];
            tensor<fp16, [1, 64, 28, 28]> opennsfw2_1_bn_stage1_block1_branch2b_1_batchnorm_add_1_cast_fp16 = conv(bias = const_246_to_fp16, dilations = opennsfw2_1_conv_stage1_block1_branch2b_1_convolutionx_dilations_0, groups = opennsfw2_1_conv_stage1_block1_branch2b_1_convolutionx_groups_0, pad = opennsfw2_1_conv_stage1_block1_branch2b_1_convolutionx_pad_0, pad_type = opennsfw2_1_conv_stage1_block1_branch2b_1_convolutionx_pad_type_0, strides = opennsfw2_1_conv_stage1_block1_branch2b_1_convolutionx_strides_0, weight = const_245_to_fp16, x = opennsfw2_1_activation_stage1_block1_branch2a_1_Relu_cast_fp16)[name = tensor<string, []>("opennsfw2_1_bn_stage1_block1_branch2b_1_batchnorm_add_1_cast_fp16")];
            tensor<fp16, [1, 64, 28, 28]> opennsfw2_1_activation_stage1_block1_branch2b_1_Relu_cast_fp16 = relu(x = opennsfw2_1_bn_stage1_block1_branch2b_1_batchnorm_add_1_cast_fp16)[name = tensor<string, []>("opennsfw2_1_activation_stage1_block1_branch2b_1_Relu_cast_fp16")];
            tensor<string, []> opennsfw2_1_conv_stage1_block1_branch2c_1_convolutionx_pad_type_0 = const()[name = tensor<string, []>("opennsfw2_1_conv_stage1_block1_branch2c_1_convolutionx_pad_type_0"), val = tensor<string, []>("same")];
            tensor<int32, [2]> opennsfw2_1_conv_stage1_block1_branch2c_1_convolutionx_strides_0 = const()[name = tensor<string, []>("opennsfw2_1_conv_stage1_block1_branch2c_1_convolutionx_strides_0"), val = tensor<int32, [2]>([1, 1])];
            tensor<int32, [2]> opennsfw2_1_conv_stage1_block1_branch2c_1_convolutionx_dilations_0 = const()[name = tensor<string, []>("opennsfw2_1_conv_stage1_block1_branch2c_1_convolutionx_dilations_0"), val = tensor<int32, [2]>([1, 1])];
            tensor<int32, []> opennsfw2_1_conv_stage1_block1_branch2c_1_convolutionx_groups_0 = const()[name = tensor<string, []>("opennsfw2_1_conv_stage1_block1_branch2c_1_convolutionx_groups_0"), val = tensor<int32, []>(1)];
            tensor<int32, [4]> opennsfw2_1_conv_stage1_block1_branch2c_1_convolutionx_pad_0 = const()[name = tensor<string, []>("opennsfw2_1_conv_stage1_block1_branch2c_1_convolutionx_pad_0"), val = tensor<int32, [4]>([0, 0, 0, 0])];
            tensor<fp16, [256, 64, 1, 1]> const_247_to_fp16 = const()[name = tensor<string, []>("const_247_to_fp16"), val = tensor<fp16, [256, 64, 1, 1]>(BLOBFILE(path = tensor<string, []>("@model_path/weights/weight.bin"), offset = tensor<uint64, []>(435776)))];
            tensor<fp16, [256]> const_248_to_fp16 = const()[name = tensor<string, []>("const_248_to_fp16"), val = tensor<fp16, [256]>(BLOBFILE(path = tensor<string, []>("@model_path/weights/weight.bin"), offset = tensor<uint64, []>(468608)))];
            tensor<fp16, [1, 256, 28, 28]> opennsfw2_1_bn_stage1_block1_branch2c_1_batchnorm_add_1_cast_fp16 = conv(bias = const_248_to_fp16, dilations = opennsfw2_1_conv_stage1_block1_branch2c_1_convolutionx_dilations_0, groups = opennsfw2_1_conv_stage1_block1_branch2c_1_convolutionx_groups_0, pad = opennsfw2_1_conv_stage1_block1_branch2c_1_convolutionx_pad_0, pad_type = opennsfw2_1_conv_stage1_block1_branch2c_1_convolutionx_pad_type_0, strides = opennsfw2_1_conv_stage1_block1_branch2c_1_convolutionx_strides_0, weight = const_247_to_fp16, x = opennsfw2_1_activation_stage1_block1_branch2b_1_Relu_cast_fp16)[name = tensor<string, []>("opennsfw2_1_bn_stage1_block1_branch2c_1_batchnorm_add_1_cast_fp16")];
            tensor<fp16, [1, 256, 28, 28]> opennsfw2_1_add_4_1_Add_cast_fp16 = add(x = opennsfw2_1_bn_stage1_block1_branch2c_1_batchnorm_add_1_cast_fp16, y = opennsfw2_1_activation_stage1_block0_1_Relu_cast_fp16)[name = tensor<string, []>("opennsfw2_1_add_4_1_Add_cast_fp16")];
            tensor<fp16, [1, 256, 28, 28]> opennsfw2_1_activation_stage1_block1_1_Relu_cast_fp16 = relu(x = opennsfw2_1_add_4_1_Add_cast_fp16)[name = tensor<string, []>("opennsfw2_1_activation_stage1_block1_1_Relu_cast_fp16")];
            tensor<string, []> opennsfw2_1_conv_stage1_block2_branch2a_1_convolutionx_pad_type_0 = const()[name = tensor<string, []>("opennsfw2_1_conv_stage1_block2_branch2a_1_convolutionx_pad_type_0"), val = tensor<string, []>("same")];
            tensor<int32, [2]> opennsfw2_1_conv_stage1_block2_branch2a_1_convolutionx_strides_0 = const()[name = tensor<string, []>("opennsfw2_1_conv_stage1_block2_branch2a_1_convolutionx_strides_0"), val = tensor<int32, [2]>([1, 1])];
            tensor<int32, [2]> opennsfw2_1_conv_stage1_block2_branch2a_1_convolutionx_dilations_0 = const()[name = tensor<string, []>("opennsfw2_1_conv_stage1_block2_branch2a_1_convolutionx_dilations_0"), val = tensor<int32, [2]>([1, 1])];
            tensor<int32, []> opennsfw2_1_conv_stage1_block2_branch2a_1_convolutionx_groups_0 = const()[name = tensor<string, []>("opennsfw2_1_conv_stage1_block2_branch2a_1_convolutionx_groups_0"), val = tensor<int32, []>(1)];
            tensor<int32, [4]> opennsfw2_1_conv_stage1_block2_branch2a_1_convolutionx_pad_0 = const()[name = tensor<string, []>("opennsfw2_1_conv_stage1_block2_branch2a_1_convolutionx_pad_0"), val = tensor<int32, [4]>([0, 0, 0, 0])];
            tensor<fp16, [64, 256, 1, 1]> const_249_to_fp16 = const()[name = tensor<string, []>("const_249_to_fp16"), val = tensor<fp16, [64, 256, 1, 1]>(BLOBFILE(path = tensor<string, []>("@model_path/weights/weight.bin"), offset = tensor<uint64, []>(469184)))];
            tensor<fp16, [64]> const_250_to_fp16 = const()[name = tensor<string, []>("const_250_to_fp16"), val = tensor<fp16, [64]>(BLOBFILE(path = tensor<string, []>("@model_path/weights/weight.bin"), offset = tensor<uint64, []>(502016)))];
            tensor<fp16, [1, 64, 28, 28]> opennsfw2_1_bn_stage1_block2_branch2a_1_batchnorm_add_1_cast_fp16 = conv(bias = const_250_to_fp16, dilations = opennsfw2_1_conv_stage1_block2_branch2a_1_convolutionx_dilations_0, groups = opennsfw2_1_conv_stage1_block2_branch2a_1_convolutionx_groups_0, pad = opennsfw2_1_conv_stage1_block2_branch2a_1_convolutionx_pad_0, pad_type = opennsfw2_1_conv_stage1_block2_branch2a_1_convolutionx_pad_type_0, strides = opennsfw2_1_conv_stage1_block2_branch2a_1_convolutionx_strides_0, weight = const_249_to_fp16, x = opennsfw2_1_activation_stage1_block1_1_Relu_cast_fp16)[name = tensor<string, []>("opennsfw2_1_bn_stage1_block2_branch2a_1_batchnorm_add_1_cast_fp16")];
            tensor<fp16, [1, 64, 28, 28]> opennsfw2_1_activation_stage1_block2_branch2a_1_Relu_cast_fp16 = relu(x = opennsfw2_1_bn_stage1_block2_branch2a_1_batchnorm_add_1_cast_fp16)[name = tensor<string, []>("opennsfw2_1_activation_stage1_block2_branch2a_1_Relu_cast_fp16")];
            tensor<string, []> opennsfw2_1_conv_stage1_block2_branch2b_1_convolutionx_pad_type_0 = const()[name = tensor<string, []>("opennsfw2_1_conv_stage1_block2_branch2b_1_convolutionx_pad_type_0"), val = tensor<string, []>("same")];
            tensor<int32, [2]> opennsfw2_1_conv_stage1_block2_branch2b_1_convolutionx_strides_0 = const()[name = tensor<string, []>("opennsfw2_1_conv_stage1_block2_branch2b_1_convolutionx_strides_0"), val = tensor<int32, [2]>([1, 1])];
            tensor<int32, [2]> opennsfw2_1_conv_stage1_block2_branch2b_1_convolutionx_dilations_0 = const()[name = tensor<string, []>("opennsfw2_1_conv_stage1_block2_branch2b_1_convolutionx_dilations_0"), val = tensor<int32, [2]>([1, 1])];
            tensor<int32, []> opennsfw2_1_conv_stage1_block2_branch2b_1_convolutionx_groups_0 = const()[name = tensor<string, []>("opennsfw2_1_conv_stage1_block2_branch2b_1_convolutionx_groups_0"), val = tensor<int32, []>(1)];
            tensor<int32, [4]> opennsfw2_1_conv_stage1_block2_branch2b_1_convolutionx_pad_0 = const()[name = tensor<string, []>("opennsfw2_1_conv_stage1_block2_branch2b_1_convolutionx_pad_0"), val = tensor<int32, [4]>([0, 0, 0, 0])];
            tensor<fp16, [64, 64, 3, 3]> const_251_to_fp16 = const()[name = tensor<string, []>("const_251_to_fp16"), val = tensor<fp16, [64, 64, 3, 3]>(BLOBFILE(path = tensor<string, []>("@model_path/weights/weight.bin"), offset = tensor<uint64, []>(502208)))];
            tensor<fp16, [64]> const_252_to_fp16 = const()[name = tensor<string, []>("const_252_to_fp16"), val = tensor<fp16, [64]>(BLOBFILE(path = tensor<string, []>("@model_path/weights/weight.bin"), offset = tensor<uint64, []>(576000)))];
            tensor<fp16, [1, 64, 28, 28]> opennsfw2_1_bn_stage1_block2_branch2b_1_batchnorm_add_1_cast_fp16 = conv(bias = const_252_to_fp16, dilations = opennsfw2_1_conv_stage1_block2_branch2b_1_convolutionx_dilations_0, groups = opennsfw2_1_conv_stage1_block2_branch2b_1_convolutionx_groups_0, pad = opennsfw2_1_conv_stage1_block2_branch2b_1_convolutionx_pad_0, pad_type = opennsfw2_1_conv_stage1_block2_branch2b_1_convolutionx_pad_type_0, strides = opennsfw2_1_conv_stage1_block2_branch2b_1_convolutionx_strides_0, weight = const_251_to_fp16, x = opennsfw2_1_activation_stage1_block2_branch2a_1_Relu_cast_fp16)[name = tensor<string, []>("opennsfw2_1_bn_stage1_block2_branch2b_1_batchnorm_add_1_cast_fp16")];
            tensor<fp16, [1, 64, 28, 28]> opennsfw2_1_activation_stage1_block2_branch2b_1_Relu_cast_fp16 = relu(x = opennsfw2_1_bn_stage1_block2_branch2b_1_batchnorm_add_1_cast_fp16)[name = tensor<string, []>("opennsfw2_1_activation_stage1_block2_branch2b_1_Relu_cast_fp16")];
            tensor<string, []> opennsfw2_1_conv_stage1_block2_branch2c_1_convolutionx_pad_type_0 = const()[name = tensor<string, []>("opennsfw2_1_conv_stage1_block2_branch2c_1_convolutionx_pad_type_0"), val = tensor<string, []>("same")];
            tensor<int32, [2]> opennsfw2_1_conv_stage1_block2_branch2c_1_convolutionx_strides_0 = const()[name = tensor<string, []>("opennsfw2_1_conv_stage1_block2_branch2c_1_convolutionx_strides_0"), val = tensor<int32, [2]>([1, 1])];
            tensor<int32, [2]> opennsfw2_1_conv_stage1_block2_branch2c_1_convolutionx_dilations_0 = const()[name = tensor<string, []>("opennsfw2_1_conv_stage1_block2_branch2c_1_convolutionx_dilations_0"), val = tensor<int32, [2]>([1, 1])];
            tensor<int32, []> opennsfw2_1_conv_stage1_block2_branch2c_1_convolutionx_groups_0 = const()[name = tensor<string, []>("opennsfw2_1_conv_stage1_block2_branch2c_1_convolutionx_groups_0"), val = tensor<int32, []>(1)];
            tensor<int32, [4]> opennsfw2_1_conv_stage1_block2_branch2c_1_convolutionx_pad_0 = const()[name = tensor<string, []>("opennsfw2_1_conv_stage1_block2_branch2c_1_convolutionx_pad_0"), val = tensor<int32, [4]>([0, 0, 0, 0])];
            tensor<fp16, [256, 64, 1, 1]> const_253_to_fp16 = const()[name = tensor<string, []>("const_253_to_fp16"), val = tensor<fp16, [256, 64, 1, 1]>(BLOBFILE(path = tensor<string, []>("@model_path/weights/weight.bin"), offset = tensor<uint64, []>(576192)))];
            tensor<fp16, [256]> const_254_to_fp16 = const()[name = tensor<string, []>("const_254_to_fp16"), val = tensor<fp16, [256]>(BLOBFILE(path = tensor<string, []>("@model_path/weights/weight.bin"), offset = tensor<uint64, []>(609024)))];
            tensor<fp16, [1, 256, 28, 28]> opennsfw2_1_bn_stage1_block2_branch2c_1_batchnorm_add_1_cast_fp16 = conv(bias = const_254_to_fp16, dilations = opennsfw2_1_conv_stage1_block2_branch2c_1_convolutionx_dilations_0, groups = opennsfw2_1_conv_stage1_block2_branch2c_1_convolutionx_groups_0, pad = opennsfw2_1_conv_stage1_block2_branch2c_1_convolutionx_pad_0, pad_type = opennsfw2_1_conv_stage1_block2_branch2c_1_convolutionx_pad_type_0, strides = opennsfw2_1_conv_stage1_block2_branch2c_1_convolutionx_strides_0, weight = const_253_to_fp16, x = opennsfw2_1_activation_stage1_block2_branch2b_1_Relu_cast_fp16)[name = tensor<string, []>("opennsfw2_1_bn_stage1_block2_branch2c_1_batchnorm_add_1_cast_fp16")];
            tensor<fp16, [1, 256, 28, 28]> opennsfw2_1_add_5_1_Add_cast_fp16 = add(x = opennsfw2_1_bn_stage1_block2_branch2c_1_batchnorm_add_1_cast_fp16, y = opennsfw2_1_activation_stage1_block1_1_Relu_cast_fp16)[name = tensor<string, []>("opennsfw2_1_add_5_1_Add_cast_fp16")];
            tensor<fp16, [1, 256, 28, 28]> opennsfw2_1_activation_stage1_block2_1_Relu_cast_fp16 = relu(x = opennsfw2_1_add_5_1_Add_cast_fp16)[name = tensor<string, []>("opennsfw2_1_activation_stage1_block2_1_Relu_cast_fp16")];
            tensor<string, []> opennsfw2_1_conv_stage1_block3_branch2a_1_convolutionx_pad_type_0 = const()[name = tensor<string, []>("opennsfw2_1_conv_stage1_block3_branch2a_1_convolutionx_pad_type_0"), val = tensor<string, []>("same")];
            tensor<int32, [2]> opennsfw2_1_conv_stage1_block3_branch2a_1_convolutionx_strides_0 = const()[name = tensor<string, []>("opennsfw2_1_conv_stage1_block3_branch2a_1_convolutionx_strides_0"), val = tensor<int32, [2]>([1, 1])];
            tensor<int32, [2]> opennsfw2_1_conv_stage1_block3_branch2a_1_convolutionx_dilations_0 = const()[name = tensor<string, []>("opennsfw2_1_conv_stage1_block3_branch2a_1_convolutionx_dilations_0"), val = tensor<int32, [2]>([1, 1])];
            tensor<int32, []> opennsfw2_1_conv_stage1_block3_branch2a_1_convolutionx_groups_0 = const()[name = tensor<string, []>("opennsfw2_1_conv_stage1_block3_branch2a_1_convolutionx_groups_0"), val = tensor<int32, []>(1)];
            tensor<int32, [4]> opennsfw2_1_conv_stage1_block3_branch2a_1_convolutionx_pad_0 = const()[name = tensor<string, []>("opennsfw2_1_conv_stage1_block3_branch2a_1_convolutionx_pad_0"), val = tensor<int32, [4]>([0, 0, 0, 0])];
            tensor<fp16, [64, 256, 1, 1]> const_255_to_fp16 = const()[name = tensor<string, []>("const_255_to_fp16"), val = tensor<fp16, [64, 256, 1, 1]>(BLOBFILE(path = tensor<string, []>("@model_path/weights/weight.bin"), offset = tensor<uint64, []>(609600)))];
            tensor<fp16, [64]> const_256_to_fp16 = const()[name = tensor<string, []>("const_256_to_fp16"), val = tensor<fp16, [64]>(BLOBFILE(path = tensor<string, []>("@model_path/weights/weight.bin"), offset = tensor<uint64, []>(642432)))];
            tensor<fp16, [1, 64, 28, 28]> opennsfw2_1_bn_stage1_block3_branch2a_1_batchnorm_add_1_cast_fp16 = conv(bias = const_256_to_fp16, dilations = opennsfw2_1_conv_stage1_block3_branch2a_1_convolutionx_dilations_0, groups = opennsfw2_1_conv_stage1_block3_branch2a_1_convolutionx_groups_0, pad = opennsfw2_1_conv_stage1_block3_branch2a_1_convolutionx_pad_0, pad_type = opennsfw2_1_conv_stage1_block3_branch2a_1_convolutionx_pad_type_0, strides = opennsfw2_1_conv_stage1_block3_branch2a_1_convolutionx_strides_0, weight = const_255_to_fp16, x = opennsfw2_1_activation_stage1_block2_1_Relu_cast_fp16)[name = tensor<string, []>("opennsfw2_1_bn_stage1_block3_branch2a_1_batchnorm_add_1_cast_fp16")];
            tensor<fp16, [1, 64, 28, 28]> opennsfw2_1_activation_stage1_block3_branch2a_1_Relu_cast_fp16 = relu(x = opennsfw2_1_bn_stage1_block3_branch2a_1_batchnorm_add_1_cast_fp16)[name = tensor<string, []>("opennsfw2_1_activation_stage1_block3_branch2a_1_Relu_cast_fp16")];
            tensor<string, []> opennsfw2_1_conv_stage1_block3_branch2b_1_convolutionx_pad_type_0 = const()[name = tensor<string, []>("opennsfw2_1_conv_stage1_block3_branch2b_1_convolutionx_pad_type_0"), val = tensor<string, []>("same")];
            tensor<int32, [2]> opennsfw2_1_conv_stage1_block3_branch2b_1_convolutionx_strides_0 = const()[name = tensor<string, []>("opennsfw2_1_conv_stage1_block3_branch2b_1_convolutionx_strides_0"), val = tensor<int32, [2]>([1, 1])];
            tensor<int32, [2]> opennsfw2_1_conv_stage1_block3_branch2b_1_convolutionx_dilations_0 = const()[name = tensor<string, []>("opennsfw2_1_conv_stage1_block3_branch2b_1_convolutionx_dilations_0"), val = tensor<int32, [2]>([1, 1])];
            tensor<int32, []> opennsfw2_1_conv_stage1_block3_branch2b_1_convolutionx_groups_0 = const()[name = tensor<string, []>("opennsfw2_1_conv_stage1_block3_branch2b_1_convolutionx_groups_0"), val = tensor<int32, []>(1)];
            tensor<int32, [4]> opennsfw2_1_conv_stage1_block3_branch2b_1_convolutionx_pad_0 = const()[name = tensor<string, []>("opennsfw2_1_conv_stage1_block3_branch2b_1_convolutionx_pad_0"), val = tensor<int32, [4]>([0, 0, 0, 0])];
            tensor<fp16, [64, 64, 3, 3]> const_257_to_fp16 = const()[name = tensor<string, []>("const_257_to_fp16"), val = tensor<fp16, [64, 64, 3, 3]>(BLOBFILE(path = tensor<string, []>("@model_path/weights/weight.bin"), offset = tensor<uint64, []>(642624)))];
            tensor<fp16, [64]> const_258_to_fp16 = const()[name = tensor<string, []>("const_258_to_fp16"), val = tensor<fp16, [64]>(BLOBFILE(path = tensor<string, []>("@model_path/weights/weight.bin"), offset = tensor<uint64, []>(716416)))];
            tensor<fp16, [1, 64, 28, 28]> opennsfw2_1_bn_stage1_block3_branch2b_1_batchnorm_add_1_cast_fp16 = conv(bias = const_258_to_fp16, dilations = opennsfw2_1_conv_stage1_block3_branch2b_1_convolutionx_dilations_0, groups = opennsfw2_1_conv_stage1_block3_branch2b_1_convolutionx_groups_0, pad = opennsfw2_1_conv_stage1_block3_branch2b_1_convolutionx_pad_0, pad_type = opennsfw2_1_conv_stage1_block3_branch2b_1_convolutionx_pad_type_0, strides = opennsfw2_1_conv_stage1_block3_branch2b_1_convolutionx_strides_0, weight = const_257_to_fp16, x = opennsfw2_1_activation_stage1_block3_branch2a_1_Relu_cast_fp16)[name = tensor<string, []>("opennsfw2_1_bn_stage1_block3_branch2b_1_batchnorm_add_1_cast_fp16")];
            tensor<fp16, [1, 64, 28, 28]> opennsfw2_1_activation_stage1_block3_branch2b_1_Relu_cast_fp16 = relu(x = opennsfw2_1_bn_stage1_block3_branch2b_1_batchnorm_add_1_cast_fp16)[name = tensor<string, []>("opennsfw2_1_activation_stage1_block3_branch2b_1_Relu_cast_fp16")];
            tensor<string, []> opennsfw2_1_conv_stage1_block3_branch2c_1_convolutionx_pad_type_0 = const()[name = tensor<string, []>("opennsfw2_1_conv_stage1_block3_branch2c_1_convolutionx_pad_type_0"), val = tensor<string, []>("same")];
            tensor<int32, [2]> opennsfw2_1_conv_stage1_block3_branch2c_1_convolutionx_strides_0 = const()[name = tensor<string, []>("opennsfw2_1_conv_stage1_block3_branch2c_1_convolutionx_strides_0"), val = tensor<int32, [2]>([1, 1])];
            tensor<int32, [2]> opennsfw2_1_conv_stage1_block3_branch2c_1_convolutionx_dilations_0 = const()[name = tensor<string, []>("opennsfw2_1_conv_stage1_block3_branch2c_1_convolutionx_dilations_0"), val = tensor<int32, [2]>([1, 1])];
            tensor<int32, []> opennsfw2_1_conv_stage1_block3_branch2c_1_convolutionx_groups_0 = const()[name = tensor<string, []>("opennsfw2_1_conv_stage1_block3_branch2c_1_convolutionx_groups_0"), val = tensor<int32, []>(1)];
            tensor<int32, [4]> opennsfw2_1_conv_stage1_block3_branch2c_1_convolutionx_pad_0 = const()[name = tensor<string, []>("opennsfw2_1_conv_stage1_block3_branch2c_1_convolutionx_pad_0"), val = tensor<int32, [4]>([0, 0, 0, 0])];
            tensor<fp16, [256, 64, 1, 1]> const_259_to_fp16 = const()[name = tensor<string, []>("const_259_to_fp16"), val = tensor<fp16, [256, 64, 1, 1]>(BLOBFILE(path = tensor<string, []>("@model_path/weights/weight.bin"), offset = tensor<uint64, []>(716608)))];
            tensor<fp16, [256]> const_260_to_fp16 = const()[name = tensor<string, []>("const_260_to_fp16"), val = tensor<fp16, [256]>(BLOBFILE(path = tensor<string, []>("@model_path/weights/weight.bin"), offset = tensor<uint64, []>(749440)))];
            tensor<fp16, [1, 256, 28, 28]> opennsfw2_1_bn_stage1_block3_branch2c_1_batchnorm_add_1_cast_fp16 = conv(bias = const_260_to_fp16, dilations = opennsfw2_1_conv_stage1_block3_branch2c_1_convolutionx_dilations_0, groups = opennsfw2_1_conv_stage1_block3_branch2c_1_convolutionx_groups_0, pad = opennsfw2_1_conv_stage1_block3_branch2c_1_convolutionx_pad_0, pad_type = opennsfw2_1_conv_stage1_block3_branch2c_1_convolutionx_pad_type_0, strides = opennsfw2_1_conv_stage1_block3_branch2c_1_convolutionx_strides_0, weight = const_259_to_fp16, x = opennsfw2_1_activation_stage1_block3_branch2b_1_Relu_cast_fp16)[name = tensor<string, []>("opennsfw2_1_bn_stage1_block3_branch2c_1_batchnorm_add_1_cast_fp16")];
            tensor<fp16, [1, 256, 28, 28]> opennsfw2_1_add_6_1_Add_cast_fp16 = add(x = opennsfw2_1_bn_stage1_block3_branch2c_1_batchnorm_add_1_cast_fp16, y = opennsfw2_1_activation_stage1_block2_1_Relu_cast_fp16)[name = tensor<string, []>("opennsfw2_1_add_6_1_Add_cast_fp16")];
            tensor<fp16, [1, 256, 28, 28]> opennsfw2_1_activation_stage1_block3_1_Relu_cast_fp16 = relu(x = opennsfw2_1_add_6_1_Add_cast_fp16)[name = tensor<string, []>("opennsfw2_1_activation_stage1_block3_1_Relu_cast_fp16")];
            tensor<string, []> opennsfw2_1_conv_stage2_block0_branch2a_1_convolutionx_pad_type_0 = const()[name = tensor<string, []>("opennsfw2_1_conv_stage2_block0_branch2a_1_convolutionx_pad_type_0"), val = tensor<string, []>("same")];
            tensor<int32, [2]> opennsfw2_1_conv_stage2_block0_branch2a_1_convolutionx_strides_0 = const()[name = tensor<string, []>("opennsfw2_1_conv_stage2_block0_branch2a_1_convolutionx_strides_0"), val = tensor<int32, [2]>([2, 2])];
            tensor<int32, [2]> opennsfw2_1_conv_stage2_block0_branch2a_1_convolutionx_dilations_0 = const()[name = tensor<string, []>("opennsfw2_1_conv_stage2_block0_branch2a_1_convolutionx_dilations_0"), val = tensor<int32, [2]>([1, 1])];
            tensor<int32, []> opennsfw2_1_conv_stage2_block0_branch2a_1_convolutionx_groups_0 = const()[name = tensor<string, []>("opennsfw2_1_conv_stage2_block0_branch2a_1_convolutionx_groups_0"), val = tensor<int32, []>(1)];
            tensor<int32, [4]> opennsfw2_1_conv_stage2_block0_branch2a_1_convolutionx_pad_0 = const()[name = tensor<string, []>("opennsfw2_1_conv_stage2_block0_branch2a_1_convolutionx_pad_0"), val = tensor<int32, [4]>([0, 0, 0, 0])];
            tensor<fp16, [128, 256, 1, 1]> const_261_to_fp16 = const()[name = tensor<string, []>("const_261_to_fp16"), val = tensor<fp16, [128, 256, 1, 1]>(BLOBFILE(path = tensor<string, []>("@model_path/weights/weight.bin"), offset = tensor<uint64, []>(750016)))];
            tensor<fp16, [128]> const_262_to_fp16 = const()[name = tensor<string, []>("const_262_to_fp16"), val = tensor<fp16, [128]>(BLOBFILE(path = tensor<string, []>("@model_path/weights/weight.bin"), offset = tensor<uint64, []>(815616)))];
            tensor<fp16, [1, 128, 14, 14]> opennsfw2_1_bn_stage2_block0_branch2a_1_batchnorm_add_1_cast_fp16 = conv(bias = const_262_to_fp16, dilations = opennsfw2_1_conv_stage2_block0_branch2a_1_convolutionx_dilations_0, groups = opennsfw2_1_conv_stage2_block0_branch2a_1_convolutionx_groups_0, pad = opennsfw2_1_conv_stage2_block0_branch2a_1_convolutionx_pad_0, pad_type = opennsfw2_1_conv_stage2_block0_branch2a_1_convolutionx_pad_type_0, strides = opennsfw2_1_conv_stage2_block0_branch2a_1_convolutionx_strides_0, weight = const_261_to_fp16, x = opennsfw2_1_activation_stage1_block3_1_Relu_cast_fp16)[name = tensor<string, []>("opennsfw2_1_bn_stage2_block0_branch2a_1_batchnorm_add_1_cast_fp16")];
            tensor<string, []> opennsfw2_1_conv_stage2_block0_proj_shortcut_1_convolutionx_pad_type_0 = const()[name = tensor<string, []>("opennsfw2_1_conv_stage2_block0_proj_shortcut_1_convolutionx_pad_type_0"), val = tensor<string, []>("same")];
            tensor<int32, [2]> opennsfw2_1_conv_stage2_block0_proj_shortcut_1_convolutionx_strides_0 = const()[name = tensor<string, []>("opennsfw2_1_conv_stage2_block0_proj_shortcut_1_convolutionx_strides_0"), val = tensor<int32, [2]>([2, 2])];
            tensor<int32, [2]> opennsfw2_1_conv_stage2_block0_proj_shortcut_1_convolutionx_dilations_0 = const()[name = tensor<string, []>("opennsfw2_1_conv_stage2_block0_proj_shortcut_1_convolutionx_dilations_0"), val = tensor<int32, [2]>([1, 1])];
            tensor<int32, []> opennsfw2_1_conv_stage2_block0_proj_shortcut_1_convolutionx_groups_0 = const()[name = tensor<string, []>("opennsfw2_1_conv_stage2_block0_proj_shortcut_1_convolutionx_groups_0"), val = tensor<int32, []>(1)];
            tensor<int32, [4]> opennsfw2_1_conv_stage2_block0_proj_shortcut_1_convolutionx_pad_0 = const()[name = tensor<string, []>("opennsfw2_1_conv_stage2_block0_proj_shortcut_1_convolutionx_pad_0"), val = tensor<int32, [4]>([0, 0, 0, 0])];
            tensor<fp16, [512, 256, 1, 1]> const_263_to_fp16 = const()[name = tensor<string, []>("const_263_to_fp16"), val = tensor<fp16, [512, 256, 1, 1]>(BLOBFILE(path = tensor<string, []>("@model_path/weights/weight.bin"), offset = tensor<uint64, []>(815936)))];
            tensor<fp16, [512]> const_264_to_fp16 = const()[name = tensor<string, []>("const_264_to_fp16"), val = tensor<fp16, [512]>(BLOBFILE(path = tensor<string, []>("@model_path/weights/weight.bin"), offset = tensor<uint64, []>(1078144)))];
            tensor<fp16, [1, 512, 14, 14]> opennsfw2_1_bn_stage2_block0_proj_shortcut_1_batchnorm_add_1_cast_fp16 = conv(bias = const_264_to_fp16, dilations = opennsfw2_1_conv_stage2_block0_proj_shortcut_1_convolutionx_dilations_0, groups = opennsfw2_1_conv_stage2_block0_proj_shortcut_1_convolutionx_groups_0, pad = opennsfw2_1_conv_stage2_block0_proj_shortcut_1_convolutionx_pad_0, pad_type = opennsfw2_1_conv_stage2_block0_proj_shortcut_1_convolutionx_pad_type_0, strides = opennsfw2_1_conv_stage2_block0_proj_shortcut_1_convolutionx_strides_0, weight = const_263_to_fp16, x = opennsfw2_1_activation_stage1_block3_1_Relu_cast_fp16)[name = tensor<string, []>("opennsfw2_1_bn_stage2_block0_proj_shortcut_1_batchnorm_add_1_cast_fp16")];
            tensor<fp16, [1, 128, 14, 14]> opennsfw2_1_activation_stage2_block0_branch2a_1_Relu_cast_fp16 = relu(x = opennsfw2_1_bn_stage2_block0_branch2a_1_batchnorm_add_1_cast_fp16)[name = tensor<string, []>("opennsfw2_1_activation_stage2_block0_branch2a_1_Relu_cast_fp16")];
            tensor<string, []> opennsfw2_1_conv_stage2_block0_branch2b_1_convolutionx_pad_type_0 = const()[name = tensor<string, []>("opennsfw2_1_conv_stage2_block0_branch2b_1_convolutionx_pad_type_0"), val = tensor<string, []>("same")];
            tensor<int32, [2]> opennsfw2_1_conv_stage2_block0_branch2b_1_convolutionx_strides_0 = const()[name = tensor<string, []>("opennsfw2_1_conv_stage2_block0_branch2b_1_convolutionx_strides_0"), val = tensor<int32, [2]>([1, 1])];
            tensor<int32, [2]> opennsfw2_1_conv_stage2_block0_branch2b_1_convolutionx_dilations_0 = const()[name = tensor<string, []>("opennsfw2_1_conv_stage2_block0_branch2b_1_convolutionx_dilations_0"), val = tensor<int32, [2]>([1, 1])];
            tensor<int32, []> opennsfw2_1_conv_stage2_block0_branch2b_1_convolutionx_groups_0 = const()[name = tensor<string, []>("opennsfw2_1_conv_stage2_block0_branch2b_1_convolutionx_groups_0"), val = tensor<int32, []>(1)];
            tensor<int32, [4]> opennsfw2_1_conv_stage2_block0_branch2b_1_convolutionx_pad_0 = const()[name = tensor<string, []>("opennsfw2_1_conv_stage2_block0_branch2b_1_convolutionx_pad_0"), val = tensor<int32, [4]>([0, 0, 0, 0])];
            tensor<fp16, [128, 128, 3, 3]> const_265_to_fp16 = const()[name = tensor<string, []>("const_265_to_fp16"), val = tensor<fp16, [128, 128, 3, 3]>(BLOBFILE(path = tensor<string, []>("@model_path/weights/weight.bin"), offset = tensor<uint64, []>(1079232)))];
            tensor<fp16, [128]> const_266_to_fp16 = const()[name = tensor<string, []>("const_266_to_fp16"), val = tensor<fp16, [128]>(BLOBFILE(path = tensor<string, []>("@model_path/weights/weight.bin"), offset = tensor<uint64, []>(1374208)))];
            tensor<fp16, [1, 128, 14, 14]> opennsfw2_1_bn_stage2_block0_branch2b_1_batchnorm_add_1_cast_fp16 = conv(bias = const_266_to_fp16, dilations = opennsfw2_1_conv_stage2_block0_branch2b_1_convolutionx_dilations_0, groups = opennsfw2_1_conv_stage2_block0_branch2b_1_convolutionx_groups_0, pad = opennsfw2_1_conv_stage2_block0_branch2b_1_convolutionx_pad_0, pad_type = opennsfw2_1_conv_stage2_block0_branch2b_1_convolutionx_pad_type_0, strides = opennsfw2_1_conv_stage2_block0_branch2b_1_convolutionx_strides_0, weight = const_265_to_fp16, x = opennsfw2_1_activation_stage2_block0_branch2a_1_Relu_cast_fp16)[name = tensor<string, []>("opennsfw2_1_bn_stage2_block0_branch2b_1_batchnorm_add_1_cast_fp16")];
            tensor<fp16, [1, 128, 14, 14]> opennsfw2_1_activation_stage2_block0_branch2b_1_Relu_cast_fp16 = relu(x = opennsfw2_1_bn_stage2_block0_branch2b_1_batchnorm_add_1_cast_fp16)[name = tensor<string, []>("opennsfw2_1_activation_stage2_block0_branch2b_1_Relu_cast_fp16")];
            tensor<string, []> opennsfw2_1_conv_stage2_block0_branch2c_1_convolutionx_pad_type_0 = const()[name = tensor<string, []>("opennsfw2_1_conv_stage2_block0_branch2c_1_convolutionx_pad_type_0"), val = tensor<string, []>("same")];
            tensor<int32, [2]> opennsfw2_1_conv_stage2_block0_branch2c_1_convolutionx_strides_0 = const()[name = tensor<string, []>("opennsfw2_1_conv_stage2_block0_branch2c_1_convolutionx_strides_0"), val = tensor<int32, [2]>([1, 1])];
            tensor<int32, [2]> opennsfw2_1_conv_stage2_block0_branch2c_1_convolutionx_dilations_0 = const()[name = tensor<string, []>("opennsfw2_1_conv_stage2_block0_branch2c_1_convolutionx_dilations_0"), val = tensor<int32, [2]>([1, 1])];
            tensor<int32, []> opennsfw2_1_conv_stage2_block0_branch2c_1_convolutionx_groups_0 = const()[name = tensor<string, []>("opennsfw2_1_conv_stage2_block0_branch2c_1_convolutionx_groups_0"), val = tensor<int32, []>(1)];
            tensor<int32, [4]> opennsfw2_1_conv_stage2_block0_branch2c_1_convolutionx_pad_0 = const()[name = tensor<string, []>("opennsfw2_1_conv_stage2_block0_branch2c_1_convolutionx_pad_0"), val = tensor<int32, [4]>([0, 0, 0, 0])];
            tensor<fp16, [512, 128, 1, 1]> const_267_to_fp16 = const()[name = tensor<string, []>("const_267_to_fp16"), val = tensor<fp16, [512, 128, 1, 1]>(BLOBFILE(path = tensor<string, []>("@model_path/weights/weight.bin"), offset = tensor<uint64, []>(1374528)))];
            tensor<fp16, [512]> const_268_to_fp16 = const()[name = tensor<string, []>("const_268_to_fp16"), val = tensor<fp16, [512]>(BLOBFILE(path = tensor<string, []>("@model_path/weights/weight.bin"), offset = tensor<uint64, []>(1505664)))];
            tensor<fp16, [1, 512, 14, 14]> opennsfw2_1_bn_stage2_block0_branch2c_1_batchnorm_add_1_cast_fp16 = conv(bias = const_268_to_fp16, dilations = opennsfw2_1_conv_stage2_block0_branch2c_1_convolutionx_dilations_0, groups = opennsfw2_1_conv_stage2_block0_branch2c_1_convolutionx_groups_0, pad = opennsfw2_1_conv_stage2_block0_branch2c_1_convolutionx_pad_0, pad_type = opennsfw2_1_conv_stage2_block0_branch2c_1_convolutionx_pad_type_0, strides = opennsfw2_1_conv_stage2_block0_branch2c_1_convolutionx_strides_0, weight = const_267_to_fp16, x = opennsfw2_1_activation_stage2_block0_branch2b_1_Relu_cast_fp16)[name = tensor<string, []>("opennsfw2_1_bn_stage2_block0_branch2c_1_batchnorm_add_1_cast_fp16")];
            tensor<fp16, [1, 512, 14, 14]> opennsfw2_1_add_7_1_Add_cast_fp16 = add(x = opennsfw2_1_bn_stage2_block0_branch2c_1_batchnorm_add_1_cast_fp16, y = opennsfw2_1_bn_stage2_block0_proj_shortcut_1_batchnorm_add_1_cast_fp16)[name = tensor<string, []>("opennsfw2_1_add_7_1_Add_cast_fp16")];
            tensor<fp16, [1, 512, 14, 14]> opennsfw2_1_activation_stage2_block0_1_Relu_cast_fp16 = relu(x = opennsfw2_1_add_7_1_Add_cast_fp16)[name = tensor<string, []>("opennsfw2_1_activation_stage2_block0_1_Relu_cast_fp16")];
            tensor<string, []> opennsfw2_1_conv_stage2_block1_branch2a_1_convolutionx_pad_type_0 = const()[name = tensor<string, []>("opennsfw2_1_conv_stage2_block1_branch2a_1_convolutionx_pad_type_0"), val = tensor<string, []>("same")];
            tensor<int32, [2]> opennsfw2_1_conv_stage2_block1_branch2a_1_convolutionx_strides_0 = const()[name = tensor<string, []>("opennsfw2_1_conv_stage2_block1_branch2a_1_convolutionx_strides_0"), val = tensor<int32, [2]>([1, 1])];
            tensor<int32, [2]> opennsfw2_1_conv_stage2_block1_branch2a_1_convolutionx_dilations_0 = const()[name = tensor<string, []>("opennsfw2_1_conv_stage2_block1_branch2a_1_convolutionx_dilations_0"), val = tensor<int32, [2]>([1, 1])];
            tensor<int32, []> opennsfw2_1_conv_stage2_block1_branch2a_1_convolutionx_groups_0 = const()[name = tensor<string, []>("opennsfw2_1_conv_stage2_block1_branch2a_1_convolutionx_groups_0"), val = tensor<int32, []>(1)];
            tensor<int32, [4]> opennsfw2_1_conv_stage2_block1_branch2a_1_convolutionx_pad_0 = const()[name = tensor<string, []>("opennsfw2_1_conv_stage2_block1_branch2a_1_convolutionx_pad_0"), val = tensor<int32, [4]>([0, 0, 0, 0])];
            tensor<fp16, [128, 512, 1, 1]> const_269_to_fp16 = const()[name = tensor<string, []>("const_269_to_fp16"), val = tensor<fp16, [128, 512, 1, 1]>(BLOBFILE(path = tensor<string, []>("@model_path/weights/weight.bin"), offset = tensor<uint64, []>(1506752)))];
            tensor<fp16, [128]> const_270_to_fp16 = const()[name = tensor<string, []>("const_270_to_fp16"), val = tensor<fp16, [128]>(BLOBFILE(path = tensor<string, []>("@model_path/weights/weight.bin"), offset = tensor<uint64, []>(1637888)))];
            tensor<fp16, [1, 128, 14, 14]> opennsfw2_1_bn_stage2_block1_branch2a_1_batchnorm_add_1_cast_fp16 = conv(bias = const_270_to_fp16, dilations = opennsfw2_1_conv_stage2_block1_branch2a_1_convolutionx_dilations_0, groups = opennsfw2_1_conv_stage2_block1_branch2a_1_convolutionx_groups_0, pad = opennsfw2_1_conv_stage2_block1_branch2a_1_convolutionx_pad_0, pad_type = opennsfw2_1_conv_stage2_block1_branch2a_1_convolutionx_pad_type_0, strides = opennsfw2_1_conv_stage2_block1_branch2a_1_convolutionx_strides_0, weight = const_269_to_fp16, x = opennsfw2_1_activation_stage2_block0_1_Relu_cast_fp16)[name = tensor<string, []>("opennsfw2_1_bn_stage2_block1_branch2a_1_batchnorm_add_1_cast_fp16")];
            tensor<fp16, [1, 128, 14, 14]> opennsfw2_1_activation_stage2_block1_branch2a_1_Relu_cast_fp16 = relu(x = opennsfw2_1_bn_stage2_block1_branch2a_1_batchnorm_add_1_cast_fp16)[name = tensor<string, []>("opennsfw2_1_activation_stage2_block1_branch2a_1_Relu_cast_fp16")];
            tensor<string, []> opennsfw2_1_conv_stage2_block1_branch2b_1_convolutionx_pad_type_0 = const()[name = tensor<string, []>("opennsfw2_1_conv_stage2_block1_branch2b_1_convolutionx_pad_type_0"), val = tensor<string, []>("same")];
            tensor<int32, [2]> opennsfw2_1_conv_stage2_block1_branch2b_1_convolutionx_strides_0 = const()[name = tensor<string, []>("opennsfw2_1_conv_stage2_block1_branch2b_1_convolutionx_strides_0"), val = tensor<int32, [2]>([1, 1])];
            tensor<int32, [2]> opennsfw2_1_conv_stage2_block1_branch2b_1_convolutionx_dilations_0 = const()[name = tensor<string, []>("opennsfw2_1_conv_stage2_block1_branch2b_1_convolutionx_dilations_0"), val = tensor<int32, [2]>([1, 1])];
            tensor<int32, []> opennsfw2_1_conv_stage2_block1_branch2b_1_convolutionx_groups_0 = const()[name = tensor<string, []>("opennsfw2_1_conv_stage2_block1_branch2b_1_convolutionx_groups_0"), val = tensor<int32, []>(1)];
            tensor<int32, [4]> opennsfw2_1_conv_stage2_block1_branch2b_1_convolutionx_pad_0 = const()[name = tensor<string, []>("opennsfw2_1_conv_stage2_block1_branch2b_1_convolutionx_pad_0"), val = tensor<int32, [4]>([0, 0, 0, 0])];
            tensor<fp16, [128, 128, 3, 3]> const_271_to_fp16 = const()[name = tensor<string, []>("const_271_to_fp16"), val = tensor<fp16, [128, 128, 3, 3]>(BLOBFILE(path = tensor<string, []>("@model_path/weights/weight.bin"), offset = tensor<uint64, []>(1638208)))];
            tensor<fp16, [128]> const_272_to_fp16 = const()[name = tensor<string, []>("const_272_to_fp16"), val = tensor<fp16, [128]>(BLOBFILE(path = tensor<string, []>("@model_path/weights/weight.bin"), offset = tensor<uint64, []>(1933184)))];
            tensor<fp16, [1, 128, 14, 14]> opennsfw2_1_bn_stage2_block1_branch2b_1_batchnorm_add_1_cast_fp16 = conv(bias = const_272_to_fp16, dilations = opennsfw2_1_conv_stage2_block1_branch2b_1_convolutionx_dilations_0, groups = opennsfw2_1_conv_stage2_block1_branch2b_1_convolutionx_groups_0, pad = opennsfw2_1_conv_stage2_block1_branch2b_1_convolutionx_pad_0, pad_type = opennsfw2_1_conv_stage2_block1_branch2b_1_convolutionx_pad_type_0, strides = opennsfw2_1_conv_stage2_block1_branch2b_1_convolutionx_strides_0, weight = const_271_to_fp16, x = opennsfw2_1_activation_stage2_block1_branch2a_1_Relu_cast_fp16)[name = tensor<string, []>("opennsfw2_1_bn_stage2_block1_branch2b_1_batchnorm_add_1_cast_fp16")];
            tensor<fp16, [1, 128, 14, 14]> opennsfw2_1_activation_stage2_block1_branch2b_1_Relu_cast_fp16 = relu(x = opennsfw2_1_bn_stage2_block1_branch2b_1_batchnorm_add_1_cast_fp16)[name = tensor<string, []>("opennsfw2_1_activation_stage2_block1_branch2b_1_Relu_cast_fp16")];
            tensor<string, []> opennsfw2_1_conv_stage2_block1_branch2c_1_convolutionx_pad_type_0 = const()[name = tensor<string, []>("opennsfw2_1_conv_stage2_block1_branch2c_1_convolutionx_pad_type_0"), val = tensor<string, []>("same")];
            tensor<int32, [2]> opennsfw2_1_conv_stage2_block1_branch2c_1_convolutionx_strides_0 = const()[name = tensor<string, []>("opennsfw2_1_conv_stage2_block1_branch2c_1_convolutionx_strides_0"), val = tensor<int32, [2]>([1, 1])];
            tensor<int32, [2]> opennsfw2_1_conv_stage2_block1_branch2c_1_convolutionx_dilations_0 = const()[name = tensor<string, []>("opennsfw2_1_conv_stage2_block1_branch2c_1_convolutionx_dilations_0"), val = tensor<int32, [2]>([1, 1])];
            tensor<int32, []> opennsfw2_1_conv_stage2_block1_branch2c_1_convolutionx_groups_0 = const()[name = tensor<string, []>("opennsfw2_1_conv_stage2_block1_branch2c_1_convolutionx_groups_0"), val = tensor<int32, []>(1)];
            tensor<int32, [4]> opennsfw2_1_conv_stage2_block1_branch2c_1_convolutionx_pad_0 = const()[name = tensor<string, []>("opennsfw2_1_conv_stage2_block1_branch2c_1_convolutionx_pad_0"), val = tensor<int32, [4]>([0, 0, 0, 0])];
            tensor<fp16, [512, 128, 1, 1]> const_273_to_fp16 = const()[name = tensor<string, []>("const_273_to_fp16"), val = tensor<fp16, [512, 128, 1, 1]>(BLOBFILE(path = tensor<string, []>("@model_path/weights/weight.bin"), offset = tensor<uint64, []>(1933504)))];
            tensor<fp16, [512]> const_274_to_fp16 = const()[name = tensor<string, []>("const_274_to_fp16"), val = tensor<fp16, [512]>(BLOBFILE(path = tensor<string, []>("@model_path/weights/weight.bin"), offset = tensor<uint64, []>(2064640)))];
            tensor<fp16, [1, 512, 14, 14]> opennsfw2_1_bn_stage2_block1_branch2c_1_batchnorm_add_1_cast_fp16 = conv(bias = const_274_to_fp16, dilations = opennsfw2_1_conv_stage2_block1_branch2c_1_convolutionx_dilations_0, groups = opennsfw2_1_conv_stage2_block1_branch2c_1_convolutionx_groups_0, pad = opennsfw2_1_conv_stage2_block1_branch2c_1_convolutionx_pad_0, pad_type = opennsfw2_1_conv_stage2_block1_branch2c_1_convolutionx_pad_type_0, strides = opennsfw2_1_conv_stage2_block1_branch2c_1_convolutionx_strides_0, weight = const_273_to_fp16, x = opennsfw2_1_activation_stage2_block1_branch2b_1_Relu_cast_fp16)[name = tensor<string, []>("opennsfw2_1_bn_stage2_block1_branch2c_1_batchnorm_add_1_cast_fp16")];
            tensor<fp16, [1, 512, 14, 14]> opennsfw2_1_add_8_1_Add_cast_fp16 = add(x = opennsfw2_1_bn_stage2_block1_branch2c_1_batchnorm_add_1_cast_fp16, y = opennsfw2_1_activation_stage2_block0_1_Relu_cast_fp16)[name = tensor<string, []>("opennsfw2_1_add_8_1_Add_cast_fp16")];
            tensor<fp16, [1, 512, 14, 14]> opennsfw2_1_activation_stage2_block1_1_Relu_cast_fp16 = relu(x = opennsfw2_1_add_8_1_Add_cast_fp16)[name = tensor<string, []>("opennsfw2_1_activation_stage2_block1_1_Relu_cast_fp16")];
            tensor<string, []> opennsfw2_1_conv_stage2_block2_branch2a_1_convolutionx_pad_type_0 = const()[name = tensor<string, []>("opennsfw2_1_conv_stage2_block2_branch2a_1_convolutionx_pad_type_0"), val = tensor<string, []>("same")];
            tensor<int32, [2]> opennsfw2_1_conv_stage2_block2_branch2a_1_convolutionx_strides_0 = const()[name = tensor<string, []>("opennsfw2_1_conv_stage2_block2_branch2a_1_convolutionx_strides_0"), val = tensor<int32, [2]>([1, 1])];
            tensor<int32, [2]> opennsfw2_1_conv_stage2_block2_branch2a_1_convolutionx_dilations_0 = const()[name = tensor<string, []>("opennsfw2_1_conv_stage2_block2_branch2a_1_convolutionx_dilations_0"), val = tensor<int32, [2]>([1, 1])];
            tensor<int32, []> opennsfw2_1_conv_stage2_block2_branch2a_1_convolutionx_groups_0 = const()[name = tensor<string, []>("opennsfw2_1_conv_stage2_block2_branch2a_1_convolutionx_groups_0"), val = tensor<int32, []>(1)];
            tensor<int32, [4]> opennsfw2_1_conv_stage2_block2_branch2a_1_convolutionx_pad_0 = const()[name = tensor<string, []>("opennsfw2_1_conv_stage2_block2_branch2a_1_convolutionx_pad_0"), val = tensor<int32, [4]>([0, 0, 0, 0])];
            tensor<fp16, [128, 512, 1, 1]> const_275_to_fp16 = const()[name = tensor<string, []>("const_275_to_fp16"), val = tensor<fp16, [128, 512, 1, 1]>(BLOBFILE(path = tensor<string, []>("@model_path/weights/weight.bin"), offset = tensor<uint64, []>(2065728)))];
            tensor<fp16, [128]> const_276_to_fp16 = const()[name = tensor<string, []>("const_276_to_fp16"), val = tensor<fp16, [128]>(BLOBFILE(path = tensor<string, []>("@model_path/weights/weight.bin"), offset = tensor<uint64, []>(2196864)))];
            tensor<fp16, [1, 128, 14, 14]> opennsfw2_1_bn_stage2_block2_branch2a_1_batchnorm_add_1_cast_fp16 = conv(bias = const_276_to_fp16, dilations = opennsfw2_1_conv_stage2_block2_branch2a_1_convolutionx_dilations_0, groups = opennsfw2_1_conv_stage2_block2_branch2a_1_convolutionx_groups_0, pad = opennsfw2_1_conv_stage2_block2_branch2a_1_convolutionx_pad_0, pad_type = opennsfw2_1_conv_stage2_block2_branch2a_1_convolutionx_pad_type_0, strides = opennsfw2_1_conv_stage2_block2_branch2a_1_convolutionx_strides_0, weight = const_275_to_fp16, x = opennsfw2_1_activation_stage2_block1_1_Relu_cast_fp16)[name = tensor<string, []>("opennsfw2_1_bn_stage2_block2_branch2a_1_batchnorm_add_1_cast_fp16")];
            tensor<fp16, [1, 128, 14, 14]> opennsfw2_1_activation_stage2_block2_branch2a_1_Relu_cast_fp16 = relu(x = opennsfw2_1_bn_stage2_block2_branch2a_1_batchnorm_add_1_cast_fp16)[name = tensor<string, []>("opennsfw2_1_activation_stage2_block2_branch2a_1_Relu_cast_fp16")];
            tensor<string, []> opennsfw2_1_conv_stage2_block2_branch2b_1_convolutionx_pad_type_0 = const()[name = tensor<string, []>("opennsfw2_1_conv_stage2_block2_branch2b_1_convolutionx_pad_type_0"), val = tensor<string, []>("same")];
            tensor<int32, [2]> opennsfw2_1_conv_stage2_block2_branch2b_1_convolutionx_strides_0 = const()[name = tensor<string, []>("opennsfw2_1_conv_stage2_block2_branch2b_1_convolutionx_strides_0"), val = tensor<int32, [2]>([1, 1])];
            tensor<int32, [2]> opennsfw2_1_conv_stage2_block2_branch2b_1_convolutionx_dilations_0 = const()[name = tensor<string, []>("opennsfw2_1_conv_stage2_block2_branch2b_1_convolutionx_dilations_0"), val = tensor<int32, [2]>([1, 1])];
            tensor<int32, []> opennsfw2_1_conv_stage2_block2_branch2b_1_convolutionx_groups_0 = const()[name = tensor<string, []>("opennsfw2_1_conv_stage2_block2_branch2b_1_convolutionx_groups_0"), val = tensor<int32, []>(1)];
            tensor<int32, [4]> opennsfw2_1_conv_stage2_block2_branch2b_1_convolutionx_pad_0 = const()[name = tensor<string, []>("opennsfw2_1_conv_stage2_block2_branch2b_1_convolutionx_pad_0"), val = tensor<int32, [4]>([0, 0, 0, 0])];
            tensor<fp16, [128, 128, 3, 3]> const_277_to_fp16 = const()[name = tensor<string, []>("const_277_to_fp16"), val = tensor<fp16, [128, 128, 3, 3]>(BLOBFILE(path = tensor<string, []>("@model_path/weights/weight.bin"), offset = tensor<uint64, []>(2197184)))];
            tensor<fp16, [128]> const_278_to_fp16 = const()[name = tensor<string, []>("const_278_to_fp16"), val = tensor<fp16, [128]>(BLOBFILE(path = tensor<string, []>("@model_path/weights/weight.bin"), offset = tensor<uint64, []>(2492160)))];
            tensor<fp16, [1, 128, 14, 14]> opennsfw2_1_bn_stage2_block2_branch2b_1_batchnorm_add_1_cast_fp16 = conv(bias = const_278_to_fp16, dilations = opennsfw2_1_conv_stage2_block2_branch2b_1_convolutionx_dilations_0, groups = opennsfw2_1_conv_stage2_block2_branch2b_1_convolutionx_groups_0, pad = opennsfw2_1_conv_stage2_block2_branch2b_1_convolutionx_pad_0, pad_type = opennsfw2_1_conv_stage2_block2_branch2b_1_convolutionx_pad_type_0, strides = opennsfw2_1_conv_stage2_block2_branch2b_1_convolutionx_strides_0, weight = const_277_to_fp16, x = opennsfw2_1_activation_stage2_block2_branch2a_1_Relu_cast_fp16)[name = tensor<string, []>("opennsfw2_1_bn_stage2_block2_branch2b_1_batchnorm_add_1_cast_fp16")];
            tensor<fp16, [1, 128, 14, 14]> opennsfw2_1_activation_stage2_block2_branch2b_1_Relu_cast_fp16 = relu(x = opennsfw2_1_bn_stage2_block2_branch2b_1_batchnorm_add_1_cast_fp16)[name = tensor<string, []>("opennsfw2_1_activation_stage2_block2_branch2b_1_Relu_cast_fp16")];
            tensor<string, []> opennsfw2_1_conv_stage2_block2_branch2c_1_convolutionx_pad_type_0 = const()[name = tensor<string, []>("opennsfw2_1_conv_stage2_block2_branch2c_1_convolutionx_pad_type_0"), val = tensor<string, []>("same")];
            tensor<int32, [2]> opennsfw2_1_conv_stage2_block2_branch2c_1_convolutionx_strides_0 = const()[name = tensor<string, []>("opennsfw2_1_conv_stage2_block2_branch2c_1_convolutionx_strides_0"), val = tensor<int32, [2]>([1, 1])];
            tensor<int32, [2]> opennsfw2_1_conv_stage2_block2_branch2c_1_convolutionx_dilations_0 = const()[name = tensor<string, []>("opennsfw2_1_conv_stage2_block2_branch2c_1_convolutionx_dilations_0"), val = tensor<int32, [2]>([1, 1])];
            tensor<int32, []> opennsfw2_1_conv_stage2_block2_branch2c_1_convolutionx_groups_0 = const()[name = tensor<string, []>("opennsfw2_1_conv_stage2_block2_branch2c_1_convolutionx_groups_0"), val = tensor<int32, []>(1)];
            tensor<int32, [4]> opennsfw2_1_conv_stage2_block2_branch2c_1_convolutionx_pad_0 = const()[name = tensor<string, []>("opennsfw2_1_conv_stage2_block2_branch2c_1_convolutionx_pad_0"), val = tensor<int32, [4]>([0, 0, 0, 0])];
            tensor<fp16, [512, 128, 1, 1]> const_279_to_fp16 = const()[name = tensor<string, []>("const_279_to_fp16"), val = tensor<fp16, [512, 128, 1, 1]>(BLOBFILE(path = tensor<string, []>("@model_path/weights/weight.bin"), offset = tensor<uint64, []>(2492480)))];
            tensor<fp16, [512]> const_280_to_fp16 = const()[name = tensor<string, []>("const_280_to_fp16"), val = tensor<fp16, [512]>(BLOBFILE(path = tensor<string, []>("@model_path/weights/weight.bin"), offset = tensor<uint64, []>(2623616)))];
            tensor<fp16, [1, 512, 14, 14]> opennsfw2_1_bn_stage2_block2_branch2c_1_batchnorm_add_1_cast_fp16 = conv(bias = const_280_to_fp16, dilations = opennsfw2_1_conv_stage2_block2_branch2c_1_convolutionx_dilations_0, groups = opennsfw2_1_conv_stage2_block2_branch2c_1_convolutionx_groups_0, pad = opennsfw2_1_conv_stage2_block2_branch2c_1_convolutionx_pad_0, pad_type = opennsfw2_1_conv_stage2_block2_branch2c_1_convolutionx_pad_type_0, strides = opennsfw2_1_conv_stage2_block2_branch2c_1_convolutionx_strides_0, weight = const_279_to_fp16, x = opennsfw2_1_activation_stage2_block2_branch2b_1_Relu_cast_fp16)[name = tensor<string, []>("opennsfw2_1_bn_stage2_block2_branch2c_1_batchnorm_add_1_cast_fp16")];
            tensor<fp16, [1, 512, 14, 14]> opennsfw2_1_add_9_1_Add_cast_fp16 = add(x = opennsfw2_1_bn_stage2_block2_branch2c_1_batchnorm_add_1_cast_fp16, y = opennsfw2_1_activation_stage2_block1_1_Relu_cast_fp16)[name = tensor<string, []>("opennsfw2_1_add_9_1_Add_cast_fp16")];
            tensor<fp16, [1, 512, 14, 14]> opennsfw2_1_activation_stage2_block2_1_Relu_cast_fp16 = relu(x = opennsfw2_1_add_9_1_Add_cast_fp16)[name = tensor<string, []>("opennsfw2_1_activation_stage2_block2_1_Relu_cast_fp16")];
            tensor<string, []> opennsfw2_1_conv_stage2_block3_branch2a_1_convolutionx_pad_type_0 = const()[name = tensor<string, []>("opennsfw2_1_conv_stage2_block3_branch2a_1_convolutionx_pad_type_0"), val = tensor<string, []>("same")];
            tensor<int32, [2]> opennsfw2_1_conv_stage2_block3_branch2a_1_convolutionx_strides_0 = const()[name = tensor<string, []>("opennsfw2_1_conv_stage2_block3_branch2a_1_convolutionx_strides_0"), val = tensor<int32, [2]>([1, 1])];
            tensor<int32, [2]> opennsfw2_1_conv_stage2_block3_branch2a_1_convolutionx_dilations_0 = const()[name = tensor<string, []>("opennsfw2_1_conv_stage2_block3_branch2a_1_convolutionx_dilations_0"), val = tensor<int32, [2]>([1, 1])];
            tensor<int32, []> opennsfw2_1_conv_stage2_block3_branch2a_1_convolutionx_groups_0 = const()[name = tensor<string, []>("opennsfw2_1_conv_stage2_block3_branch2a_1_convolutionx_groups_0"), val = tensor<int32, []>(1)];
            tensor<int32, [4]> opennsfw2_1_conv_stage2_block3_branch2a_1_convolutionx_pad_0 = const()[name = tensor<string, []>("opennsfw2_1_conv_stage2_block3_branch2a_1_convolutionx_pad_0"), val = tensor<int32, [4]>([0, 0, 0, 0])];
            tensor<fp16, [128, 512, 1, 1]> const_281_to_fp16 = const()[name = tensor<string, []>("const_281_to_fp16"), val = tensor<fp16, [128, 512, 1, 1]>(BLOBFILE(path = tensor<string, []>("@model_path/weights/weight.bin"), offset = tensor<uint64, []>(2624704)))];
            tensor<fp16, [128]> const_282_to_fp16 = const()[name = tensor<string, []>("const_282_to_fp16"), val = tensor<fp16, [128]>(BLOBFILE(path = tensor<string, []>("@model_path/weights/weight.bin"), offset = tensor<uint64, []>(2755840)))];
            tensor<fp16, [1, 128, 14, 14]> opennsfw2_1_bn_stage2_block3_branch2a_1_batchnorm_add_1_cast_fp16 = conv(bias = const_282_to_fp16, dilations = opennsfw2_1_conv_stage2_block3_branch2a_1_convolutionx_dilations_0, groups = opennsfw2_1_conv_stage2_block3_branch2a_1_convolutionx_groups_0, pad = opennsfw2_1_conv_stage2_block3_branch2a_1_convolutionx_pad_0, pad_type = opennsfw2_1_conv_stage2_block3_branch2a_1_convolutionx_pad_type_0, strides = opennsfw2_1_conv_stage2_block3_branch2a_1_convolutionx_strides_0, weight = const_281_to_fp16, x = opennsfw2_1_activation_stage2_block2_1_Relu_cast_fp16)[name = tensor<string, []>("opennsfw2_1_bn_stage2_block3_branch2a_1_batchnorm_add_1_cast_fp16")];
            tensor<fp16, [1, 128, 14, 14]> opennsfw2_1_activation_stage2_block3_branch2a_1_Relu_cast_fp16 = relu(x = opennsfw2_1_bn_stage2_block3_branch2a_1_batchnorm_add_1_cast_fp16)[name = tensor<string, []>("opennsfw2_1_activation_stage2_block3_branch2a_1_Relu_cast_fp16")];
            tensor<string, []> opennsfw2_1_conv_stage2_block3_branch2b_1_convolutionx_pad_type_0 = const()[name = tensor<string, []>("opennsfw2_1_conv_stage2_block3_branch2b_1_convolutionx_pad_type_0"), val = tensor<string, []>("same")];
            tensor<int32, [2]> opennsfw2_1_conv_stage2_block3_branch2b_1_convolutionx_strides_0 = const()[name = tensor<string, []>("opennsfw2_1_conv_stage2_block3_branch2b_1_convolutionx_strides_0"), val = tensor<int32, [2]>([1, 1])];
            tensor<int32, [2]> opennsfw2_1_conv_stage2_block3_branch2b_1_convolutionx_dilations_0 = const()[name = tensor<string, []>("opennsfw2_1_conv_stage2_block3_branch2b_1_convolutionx_dilations_0"), val = tensor<int32, [2]>([1, 1])];
            tensor<int32, []> opennsfw2_1_conv_stage2_block3_branch2b_1_convolutionx_groups_0 = const()[name = tensor<string, []>("opennsfw2_1_conv_stage2_block3_branch2b_1_convolutionx_groups_0"), val = tensor<int32, []>(1)];
            tensor<int32, [4]> opennsfw2_1_conv_stage2_block3_branch2b_1_convolutionx_pad_0 = const()[name = tensor<string, []>("opennsfw2_1_conv_stage2_block3_branch2b_1_convolutionx_pad_0"), val = tensor<int32, [4]>([0, 0, 0, 0])];
            tensor<fp16, [128, 128, 3, 3]> const_283_to_fp16 = const()[name = tensor<string, []>("const_283_to_fp16"), val = tensor<fp16, [128, 128, 3, 3]>(BLOBFILE(path = tensor<string, []>("@model_path/weights/weight.bin"), offset = tensor<uint64, []>(2756160)))];
            tensor<fp16, [128]> const_284_to_fp16 = const()[name = tensor<string, []>("const_284_to_fp16"), val = tensor<fp16, [128]>(BLOBFILE(path = tensor<string, []>("@model_path/weights/weight.bin"), offset = tensor<uint64, []>(3051136)))];
            tensor<fp16, [1, 128, 14, 14]> opennsfw2_1_bn_stage2_block3_branch2b_1_batchnorm_add_1_cast_fp16 = conv(bias = const_284_to_fp16, dilations = opennsfw2_1_conv_stage2_block3_branch2b_1_convolutionx_dilations_0, groups = opennsfw2_1_conv_stage2_block3_branch2b_1_convolutionx_groups_0, pad = opennsfw2_1_conv_stage2_block3_branch2b_1_convolutionx_pad_0, pad_type = opennsfw2_1_conv_stage2_block3_branch2b_1_convolutionx_pad_type_0, strides = opennsfw2_1_conv_stage2_block3_branch2b_1_convolutionx_strides_0, weight = const_283_to_fp16, x = opennsfw2_1_activation_stage2_block3_branch2a_1_Relu_cast_fp16)[name = tensor<string, []>("opennsfw2_1_bn_stage2_block3_branch2b_1_batchnorm_add_1_cast_fp16")];
            tensor<fp16, [1, 128, 14, 14]> opennsfw2_1_activation_stage2_block3_branch2b_1_Relu_cast_fp16 = relu(x = opennsfw2_1_bn_stage2_block3_branch2b_1_batchnorm_add_1_cast_fp16)[name = tensor<string, []>("opennsfw2_1_activation_stage2_block3_branch2b_1_Relu_cast_fp16")];
            tensor<string, []> opennsfw2_1_conv_stage2_block3_branch2c_1_convolutionx_pad_type_0 = const()[name = tensor<string, []>("opennsfw2_1_conv_stage2_block3_branch2c_1_convolutionx_pad_type_0"), val = tensor<string, []>("same")];
            tensor<int32, [2]> opennsfw2_1_conv_stage2_block3_branch2c_1_convolutionx_strides_0 = const()[name = tensor<string, []>("opennsfw2_1_conv_stage2_block3_branch2c_1_convolutionx_strides_0"), val = tensor<int32, [2]>([1, 1])];
            tensor<int32, [2]> opennsfw2_1_conv_stage2_block3_branch2c_1_convolutionx_dilations_0 = const()[name = tensor<string, []>("opennsfw2_1_conv_stage2_block3_branch2c_1_convolutionx_dilations_0"), val = tensor<int32, [2]>([1, 1])];
            tensor<int32, []> opennsfw2_1_conv_stage2_block3_branch2c_1_convolutionx_groups_0 = const()[name = tensor<string, []>("opennsfw2_1_conv_stage2_block3_branch2c_1_convolutionx_groups_0"), val = tensor<int32, []>(1)];
            tensor<int32, [4]> opennsfw2_1_conv_stage2_block3_branch2c_1_convolutionx_pad_0 = const()[name = tensor<string, []>("opennsfw2_1_conv_stage2_block3_branch2c_1_convolutionx_pad_0"), val = tensor<int32, [4]>([0, 0, 0, 0])];
            tensor<fp16, [512, 128, 1, 1]> const_285_to_fp16 = const()[name = tensor<string, []>("const_285_to_fp16"), val = tensor<fp16, [512, 128, 1, 1]>(BLOBFILE(path = tensor<string, []>("@model_path/weights/weight.bin"), offset = tensor<uint64, []>(3051456)))];
            tensor<fp16, [512]> const_286_to_fp16 = const()[name = tensor<string, []>("const_286_to_fp16"), val = tensor<fp16, [512]>(BLOBFILE(path = tensor<string, []>("@model_path/weights/weight.bin"), offset = tensor<uint64, []>(3182592)))];
            tensor<fp16, [1, 512, 14, 14]> opennsfw2_1_bn_stage2_block3_branch2c_1_batchnorm_add_1_cast_fp16 = conv(bias = const_286_to_fp16, dilations = opennsfw2_1_conv_stage2_block3_branch2c_1_convolutionx_dilations_0, groups = opennsfw2_1_conv_stage2_block3_branch2c_1_convolutionx_groups_0, pad = opennsfw2_1_conv_stage2_block3_branch2c_1_convolutionx_pad_0, pad_type = opennsfw2_1_conv_stage2_block3_branch2c_1_convolutionx_pad_type_0, strides = opennsfw2_1_conv_stage2_block3_branch2c_1_convolutionx_strides_0, weight = const_285_to_fp16, x = opennsfw2_1_activation_stage2_block3_branch2b_1_Relu_cast_fp16)[name = tensor<string, []>("opennsfw2_1_bn_stage2_block3_branch2c_1_batchnorm_add_1_cast_fp16")];
            tensor<fp16, [1, 512, 14, 14]> opennsfw2_1_add_10_1_Add_cast_fp16 = add(x = opennsfw2_1_bn_stage2_block3_branch2c_1_batchnorm_add_1_cast_fp16, y = opennsfw2_1_activation_stage2_block2_1_Relu_cast_fp16)[name = tensor<string, []>("opennsfw2_1_add_10_1_Add_cast_fp16")];
            tensor<fp16, [1, 512, 14, 14]> opennsfw2_1_activation_stage2_block3_1_Relu_cast_fp16 = relu(x = opennsfw2_1_add_10_1_Add_cast_fp16)[name = tensor<string, []>("opennsfw2_1_activation_stage2_block3_1_Relu_cast_fp16")];
            tensor<string, []> opennsfw2_1_conv_stage2_block4_branch2a_1_convolutionx_pad_type_0 = const()[name = tensor<string, []>("opennsfw2_1_conv_stage2_block4_branch2a_1_convolutionx_pad_type_0"), val = tensor<string, []>("same")];
            tensor<int32, [2]> opennsfw2_1_conv_stage2_block4_branch2a_1_convolutionx_strides_0 = const()[name = tensor<string, []>("opennsfw2_1_conv_stage2_block4_branch2a_1_convolutionx_strides_0"), val = tensor<int32, [2]>([1, 1])];
            tensor<int32, [2]> opennsfw2_1_conv_stage2_block4_branch2a_1_convolutionx_dilations_0 = const()[name = tensor<string, []>("opennsfw2_1_conv_stage2_block4_branch2a_1_convolutionx_dilations_0"), val = tensor<int32, [2]>([1, 1])];
            tensor<int32, []> opennsfw2_1_conv_stage2_block4_branch2a_1_convolutionx_groups_0 = const()[name = tensor<string, []>("opennsfw2_1_conv_stage2_block4_branch2a_1_convolutionx_groups_0"), val = tensor<int32, []>(1)];
            tensor<int32, [4]> opennsfw2_1_conv_stage2_block4_branch2a_1_convolutionx_pad_0 = const()[name = tensor<string, []>("opennsfw2_1_conv_stage2_block4_branch2a_1_convolutionx_pad_0"), val = tensor<int32, [4]>([0, 0, 0, 0])];
            tensor<fp16, [128, 512, 1, 1]> const_287_to_fp16 = const()[name = tensor<string, []>("const_287_to_fp16"), val = tensor<fp16, [128, 512, 1, 1]>(BLOBFILE(path = tensor<string, []>("@model_path/weights/weight.bin"), offset = tensor<uint64, []>(3183680)))];
            tensor<fp16, [128]> const_288_to_fp16 = const()[name = tensor<string, []>("const_288_to_fp16"), val = tensor<fp16, [128]>(BLOBFILE(path = tensor<string, []>("@model_path/weights/weight.bin"), offset = tensor<uint64, []>(3314816)))];
            tensor<fp16, [1, 128, 14, 14]> opennsfw2_1_bn_stage2_block4_branch2a_1_batchnorm_add_1_cast_fp16 = conv(bias = const_288_to_fp16, dilations = opennsfw2_1_conv_stage2_block4_branch2a_1_convolutionx_dilations_0, groups = opennsfw2_1_conv_stage2_block4_branch2a_1_convolutionx_groups_0, pad = opennsfw2_1_conv_stage2_block4_branch2a_1_convolutionx_pad_0, pad_type = opennsfw2_1_conv_stage2_block4_branch2a_1_convolutionx_pad_type_0, strides = opennsfw2_1_conv_stage2_block4_branch2a_1_convolutionx_strides_0, weight = const_287_to_fp16, x = opennsfw2_1_activation_stage2_block3_1_Relu_cast_fp16)[name = tensor<string, []>("opennsfw2_1_bn_stage2_block4_branch2a_1_batchnorm_add_1_cast_fp16")];
            tensor<fp16, [1, 128, 14, 14]> opennsfw2_1_activation_stage2_block4_branch2a_1_Relu_cast_fp16 = relu(x = opennsfw2_1_bn_stage2_block4_branch2a_1_batchnorm_add_1_cast_fp16)[name = tensor<string, []>("opennsfw2_1_activation_stage2_block4_branch2a_1_Relu_cast_fp16")];
            tensor<string, []> opennsfw2_1_conv_stage2_block4_branch2b_1_convolutionx_pad_type_0 = const()[name = tensor<string, []>("opennsfw2_1_conv_stage2_block4_branch2b_1_convolutionx_pad_type_0"), val = tensor<string, []>("same")];
            tensor<int32, [2]> opennsfw2_1_conv_stage2_block4_branch2b_1_convolutionx_strides_0 = const()[name = tensor<string, []>("opennsfw2_1_conv_stage2_block4_branch2b_1_convolutionx_strides_0"), val = tensor<int32, [2]>([1, 1])];
            tensor<int32, [2]> opennsfw2_1_conv_stage2_block4_branch2b_1_convolutionx_dilations_0 = const()[name = tensor<string, []>("opennsfw2_1_conv_stage2_block4_branch2b_1_convolutionx_dilations_0"), val = tensor<int32, [2]>([1, 1])];
            tensor<int32, []> opennsfw2_1_conv_stage2_block4_branch2b_1_convolutionx_groups_0 = const()[name = tensor<string, []>("opennsfw2_1_conv_stage2_block4_branch2b_1_convolutionx_groups_0"), val = tensor<int32, []>(1)];
            tensor<int32, [4]> opennsfw2_1_conv_stage2_block4_branch2b_1_convolutionx_pad_0 = const()[name = tensor<string, []>("opennsfw2_1_conv_stage2_block4_branch2b_1_convolutionx_pad_0"), val = tensor<int32, [4]>([0, 0, 0, 0])];
            tensor<fp16, [128, 128, 3, 3]> const_289_to_fp16 = const()[name = tensor<string, []>("const_289_to_fp16"), val = tensor<fp16, [128, 128, 3, 3]>(BLOBFILE(path = tensor<string, []>("@model_path/weights/weight.bin"), offset = tensor<uint64, []>(3315136)))];
            tensor<fp16, [128]> const_290_to_fp16 = const()[name = tensor<string, []>("const_290_to_fp16"), val = tensor<fp16, [128]>(BLOBFILE(path = tensor<string, []>("@model_path/weights/weight.bin"), offset = tensor<uint64, []>(3610112)))];
            tensor<fp16, [1, 128, 14, 14]> opennsfw2_1_bn_stage2_block4_branch2b_1_batchnorm_add_1_cast_fp16 = conv(bias = const_290_to_fp16, dilations = opennsfw2_1_conv_stage2_block4_branch2b_1_convolutionx_dilations_0, groups = opennsfw2_1_conv_stage2_block4_branch2b_1_convolutionx_groups_0, pad = opennsfw2_1_conv_stage2_block4_branch2b_1_convolutionx_pad_0, pad_type = opennsfw2_1_conv_stage2_block4_branch2b_1_convolutionx_pad_type_0, strides = opennsfw2_1_conv_stage2_block4_branch2b_1_convolutionx_strides_0, weight = const_289_to_fp16, x = opennsfw2_1_activation_stage2_block4_branch2a_1_Relu_cast_fp16)[name = tensor<string, []>("opennsfw2_1_bn_stage2_block4_branch2b_1_batchnorm_add_1_cast_fp16")];
            tensor<fp16, [1, 128, 14, 14]> opennsfw2_1_activation_stage2_block4_branch2b_1_Relu_cast_fp16 = relu(x = opennsfw2_1_bn_stage2_block4_branch2b_1_batchnorm_add_1_cast_fp16)[name = tensor<string, []>("opennsfw2_1_activation_stage2_block4_branch2b_1_Relu_cast_fp16")];
            tensor<string, []> opennsfw2_1_conv_stage2_block4_branch2c_1_convolutionx_pad_type_0 = const()[name = tensor<string, []>("opennsfw2_1_conv_stage2_block4_branch2c_1_convolutionx_pad_type_0"), val = tensor<string, []>("same")];
            tensor<int32, [2]> opennsfw2_1_conv_stage2_block4_branch2c_1_convolutionx_strides_0 = const()[name = tensor<string, []>("opennsfw2_1_conv_stage2_block4_branch2c_1_convolutionx_strides_0"), val = tensor<int32, [2]>([1, 1])];
            tensor<int32, [2]> opennsfw2_1_conv_stage2_block4_branch2c_1_convolutionx_dilations_0 = const()[name = tensor<string, []>("opennsfw2_1_conv_stage2_block4_branch2c_1_convolutionx_dilations_0"), val = tensor<int32, [2]>([1, 1])];
            tensor<int32, []> opennsfw2_1_conv_stage2_block4_branch2c_1_convolutionx_groups_0 = const()[name = tensor<string, []>("opennsfw2_1_conv_stage2_block4_branch2c_1_convolutionx_groups_0"), val = tensor<int32, []>(1)];
            tensor<int32, [4]> opennsfw2_1_conv_stage2_block4_branch2c_1_convolutionx_pad_0 = const()[name = tensor<string, []>("opennsfw2_1_conv_stage2_block4_branch2c_1_convolutionx_pad_0"), val = tensor<int32, [4]>([0, 0, 0, 0])];
            tensor<fp16, [512, 128, 1, 1]> const_291_to_fp16 = const()[name = tensor<string, []>("const_291_to_fp16"), val = tensor<fp16, [512, 128, 1, 1]>(BLOBFILE(path = tensor<string, []>("@model_path/weights/weight.bin"), offset = tensor<uint64, []>(3610432)))];
            tensor<fp16, [512]> const_292_to_fp16 = const()[name = tensor<string, []>("const_292_to_fp16"), val = tensor<fp16, [512]>(BLOBFILE(path = tensor<string, []>("@model_path/weights/weight.bin"), offset = tensor<uint64, []>(3741568)))];
            tensor<fp16, [1, 512, 14, 14]> opennsfw2_1_bn_stage2_block4_branch2c_1_batchnorm_add_1_cast_fp16 = conv(bias = const_292_to_fp16, dilations = opennsfw2_1_conv_stage2_block4_branch2c_1_convolutionx_dilations_0, groups = opennsfw2_1_conv_stage2_block4_branch2c_1_convolutionx_groups_0, pad = opennsfw2_1_conv_stage2_block4_branch2c_1_convolutionx_pad_0, pad_type = opennsfw2_1_conv_stage2_block4_branch2c_1_convolutionx_pad_type_0, strides = opennsfw2_1_conv_stage2_block4_branch2c_1_convolutionx_strides_0, weight = const_291_to_fp16, x = opennsfw2_1_activation_stage2_block4_branch2b_1_Relu_cast_fp16)[name = tensor<string, []>("opennsfw2_1_bn_stage2_block4_branch2c_1_batchnorm_add_1_cast_fp16")];
            tensor<fp16, [1, 512, 14, 14]> opennsfw2_1_add_11_1_Add_cast_fp16 = add(x = opennsfw2_1_bn_stage2_block4_branch2c_1_batchnorm_add_1_cast_fp16, y = opennsfw2_1_activation_stage2_block3_1_Relu_cast_fp16)[name = tensor<string, []>("opennsfw2_1_add_11_1_Add_cast_fp16")];
            tensor<fp16, [1, 512, 14, 14]> opennsfw2_1_activation_stage2_block4_1_Relu_cast_fp16 = relu(x = opennsfw2_1_add_11_1_Add_cast_fp16)[name = tensor<string, []>("opennsfw2_1_activation_stage2_block4_1_Relu_cast_fp16")];
            tensor<string, []> opennsfw2_1_conv_stage2_block5_branch2a_1_convolutionx_pad_type_0 = const()[name = tensor<string, []>("opennsfw2_1_conv_stage2_block5_branch2a_1_convolutionx_pad_type_0"), val = tensor<string, []>("same")];
            tensor<int32, [2]> opennsfw2_1_conv_stage2_block5_branch2a_1_convolutionx_strides_0 = const()[name = tensor<string, []>("opennsfw2_1_conv_stage2_block5_branch2a_1_convolutionx_strides_0"), val = tensor<int32, [2]>([1, 1])];
            tensor<int32, [2]> opennsfw2_1_conv_stage2_block5_branch2a_1_convolutionx_dilations_0 = const()[name = tensor<string, []>("opennsfw2_1_conv_stage2_block5_branch2a_1_convolutionx_dilations_0"), val = tensor<int32, [2]>([1, 1])];
            tensor<int32, []> opennsfw2_1_conv_stage2_block5_branch2a_1_convolutionx_groups_0 = const()[name = tensor<string, []>("opennsfw2_1_conv_stage2_block5_branch2a_1_convolutionx_groups_0"), val = tensor<int32, []>(1)];
            tensor<int32, [4]> opennsfw2_1_conv_stage2_block5_branch2a_1_convolutionx_pad_0 = const()[name = tensor<string, []>("opennsfw2_1_conv_stage2_block5_branch2a_1_convolutionx_pad_0"), val = tensor<int32, [4]>([0, 0, 0, 0])];
            tensor<fp16, [128, 512, 1, 1]> const_293_to_fp16 = const()[name = tensor<string, []>("const_293_to_fp16"), val = tensor<fp16, [128, 512, 1, 1]>(BLOBFILE(path = tensor<string, []>("@model_path/weights/weight.bin"), offset = tensor<uint64, []>(3742656)))];
            tensor<fp16, [128]> const_294_to_fp16 = const()[name = tensor<string, []>("const_294_to_fp16"), val = tensor<fp16, [128]>(BLOBFILE(path = tensor<string, []>("@model_path/weights/weight.bin"), offset = tensor<uint64, []>(3873792)))];
            tensor<fp16, [1, 128, 14, 14]> opennsfw2_1_bn_stage2_block5_branch2a_1_batchnorm_add_1_cast_fp16 = conv(bias = const_294_to_fp16, dilations = opennsfw2_1_conv_stage2_block5_branch2a_1_convolutionx_dilations_0, groups = opennsfw2_1_conv_stage2_block5_branch2a_1_convolutionx_groups_0, pad = opennsfw2_1_conv_stage2_block5_branch2a_1_convolutionx_pad_0, pad_type = opennsfw2_1_conv_stage2_block5_branch2a_1_convolutionx_pad_type_0, strides = opennsfw2_1_conv_stage2_block5_branch2a_1_convolutionx_strides_0, weight = const_293_to_fp16, x = opennsfw2_1_activation_stage2_block4_1_Relu_cast_fp16)[name = tensor<string, []>("opennsfw2_1_bn_stage2_block5_branch2a_1_batchnorm_add_1_cast_fp16")];
            tensor<fp16, [1, 128, 14, 14]> opennsfw2_1_activation_stage2_block5_branch2a_1_Relu_cast_fp16 = relu(x = opennsfw2_1_bn_stage2_block5_branch2a_1_batchnorm_add_1_cast_fp16)[name = tensor<string, []>("opennsfw2_1_activation_stage2_block5_branch2a_1_Relu_cast_fp16")];
            tensor<string, []> opennsfw2_1_conv_stage2_block5_branch2b_1_convolutionx_pad_type_0 = const()[name = tensor<string, []>("opennsfw2_1_conv_stage2_block5_branch2b_1_convolutionx_pad_type_0"), val = tensor<string, []>("same")];
            tensor<int32, [2]> opennsfw2_1_conv_stage2_block5_branch2b_1_convolutionx_strides_0 = const()[name = tensor<string, []>("opennsfw2_1_conv_stage2_block5_branch2b_1_convolutionx_strides_0"), val = tensor<int32, [2]>([1, 1])];
            tensor<int32, [2]> opennsfw2_1_conv_stage2_block5_branch2b_1_convolutionx_dilations_0 = const()[name = tensor<string, []>("opennsfw2_1_conv_stage2_block5_branch2b_1_convolutionx_dilations_0"), val = tensor<int32, [2]>([1, 1])];
            tensor<int32, []> opennsfw2_1_conv_stage2_block5_branch2b_1_convolutionx_groups_0 = const()[name = tensor<string, []>("opennsfw2_1_conv_stage2_block5_branch2b_1_convolutionx_groups_0"), val = tensor<int32, []>(1)];
            tensor<int32, [4]> opennsfw2_1_conv_stage2_block5_branch2b_1_convolutionx_pad_0 = const()[name = tensor<string, []>("opennsfw2_1_conv_stage2_block5_branch2b_1_convolutionx_pad_0"), val = tensor<int32, [4]>([0, 0, 0, 0])];
            tensor<fp16, [128, 128, 3, 3]> const_295_to_fp16 = const()[name = tensor<string, []>("const_295_to_fp16"), val = tensor<fp16, [128, 128, 3, 3]>(BLOBFILE(path = tensor<string, []>("@model_path/weights/weight.bin"), offset = tensor<uint64, []>(3874112)))];
            tensor<fp16, [128]> const_296_to_fp16 = const()[name = tensor<string, []>("const_296_to_fp16"), val = tensor<fp16, [128]>(BLOBFILE(path = tensor<string, []>("@model_path/weights/weight.bin"), offset = tensor<uint64, []>(4169088)))];
            tensor<fp16, [1, 128, 14, 14]> opennsfw2_1_bn_stage2_block5_branch2b_1_batchnorm_add_1_cast_fp16 = conv(bias = const_296_to_fp16, dilations = opennsfw2_1_conv_stage2_block5_branch2b_1_convolutionx_dilations_0, groups = opennsfw2_1_conv_stage2_block5_branch2b_1_convolutionx_groups_0, pad = opennsfw2_1_conv_stage2_block5_branch2b_1_convolutionx_pad_0, pad_type = opennsfw2_1_conv_stage2_block5_branch2b_1_convolutionx_pad_type_0, strides = opennsfw2_1_conv_stage2_block5_branch2b_1_convolutionx_strides_0, weight = const_295_to_fp16, x = opennsfw2_1_activation_stage2_block5_branch2a_1_Relu_cast_fp16)[name = tensor<string, []>("opennsfw2_1_bn_stage2_block5_branch2b_1_batchnorm_add_1_cast_fp16")];
            tensor<fp16, [1, 128, 14, 14]> opennsfw2_1_activation_stage2_block5_branch2b_1_Relu_cast_fp16 = relu(x = opennsfw2_1_bn_stage2_block5_branch2b_1_batchnorm_add_1_cast_fp16)[name = tensor<string, []>("opennsfw2_1_activation_stage2_block5_branch2b_1_Relu_cast_fp16")];
            tensor<string, []> opennsfw2_1_conv_stage2_block5_branch2c_1_convolutionx_pad_type_0 = const()[name = tensor<string, []>("opennsfw2_1_conv_stage2_block5_branch2c_1_convolutionx_pad_type_0"), val = tensor<string, []>("same")];
            tensor<int32, [2]> opennsfw2_1_conv_stage2_block5_branch2c_1_convolutionx_strides_0 = const()[name = tensor<string, []>("opennsfw2_1_conv_stage2_block5_branch2c_1_convolutionx_strides_0"), val = tensor<int32, [2]>([1, 1])];
            tensor<int32, [2]> opennsfw2_1_conv_stage2_block5_branch2c_1_convolutionx_dilations_0 = const()[name = tensor<string, []>("opennsfw2_1_conv_stage2_block5_branch2c_1_convolutionx_dilations_0"), val = tensor<int32, [2]>([1, 1])];
            tensor<int32, []> opennsfw2_1_conv_stage2_block5_branch2c_1_convolutionx_groups_0 = const()[name = tensor<string, []>("opennsfw2_1_conv_stage2_block5_branch2c_1_convolutionx_groups_0"), val = tensor<int32, []>(1)];
            tensor<int32, [4]> opennsfw2_1_conv_stage2_block5_branch2c_1_convolutionx_pad_0 = const()[name = tensor<string, []>("opennsfw2_1_conv_stage2_block5_branch2c_1_convolutionx_pad_0"), val = tensor<int32, [4]>([0, 0, 0, 0])];
            tensor<fp16, [512, 128, 1, 1]> const_297_to_fp16 = const()[name = tensor<string, []>("const_297_to_fp16"), val = tensor<fp16, [512, 128, 1, 1]>(BLOBFILE(path = tensor<string, []>("@model_path/weights/weight.bin"), offset = tensor<uint64, []>(4169408)))];
            tensor<fp16, [512]> const_298_to_fp16 = const()[name = tensor<string, []>("const_298_to_fp16"), val = tensor<fp16, [512]>(BLOBFILE(path = tensor<string, []>("@model_path/weights/weight.bin"), offset = tensor<uint64, []>(4300544)))];
            tensor<fp16, [1, 512, 14, 14]> opennsfw2_1_bn_stage2_block5_branch2c_1_batchnorm_add_1_cast_fp16 = conv(bias = const_298_to_fp16, dilations = opennsfw2_1_conv_stage2_block5_branch2c_1_convolutionx_dilations_0, groups = opennsfw2_1_conv_stage2_block5_branch2c_1_convolutionx_groups_0, pad = opennsfw2_1_conv_stage2_block5_branch2c_1_convolutionx_pad_0, pad_type = opennsfw2_1_conv_stage2_block5_branch2c_1_convolutionx_pad_type_0, strides = opennsfw2_1_conv_stage2_block5_branch2c_1_convolutionx_strides_0, weight = const_297_to_fp16, x = opennsfw2_1_activation_stage2_block5_branch2b_1_Relu_cast_fp16)[name = tensor<string, []>("opennsfw2_1_bn_stage2_block5_branch2c_1_batchnorm_add_1_cast_fp16")];
            tensor<fp16, [1, 512, 14, 14]> opennsfw2_1_add_12_1_Add_cast_fp16 = add(x = opennsfw2_1_bn_stage2_block5_branch2c_1_batchnorm_add_1_cast_fp16, y = opennsfw2_1_activation_stage2_block4_1_Relu_cast_fp16)[name = tensor<string, []>("opennsfw2_1_add_12_1_Add_cast_fp16")];
            tensor<fp16, [1, 512, 14, 14]> opennsfw2_1_activation_stage2_block5_1_Relu_cast_fp16 = relu(x = opennsfw2_1_add_12_1_Add_cast_fp16)[name = tensor<string, []>("opennsfw2_1_activation_stage2_block5_1_Relu_cast_fp16")];
            tensor<string, []> opennsfw2_1_conv_stage3_block0_branch2a_1_convolutionx_pad_type_0 = const()[name = tensor<string, []>("opennsfw2_1_conv_stage3_block0_branch2a_1_convolutionx_pad_type_0"), val = tensor<string, []>("same")];
            tensor<int32, [2]> opennsfw2_1_conv_stage3_block0_branch2a_1_convolutionx_strides_0 = const()[name = tensor<string, []>("opennsfw2_1_conv_stage3_block0_branch2a_1_convolutionx_strides_0"), val = tensor<int32, [2]>([2, 2])];
            tensor<int32, [2]> opennsfw2_1_conv_stage3_block0_branch2a_1_convolutionx_dilations_0 = const()[name = tensor<string, []>("opennsfw2_1_conv_stage3_block0_branch2a_1_convolutionx_dilations_0"), val = tensor<int32, [2]>([1, 1])];
            tensor<int32, []> opennsfw2_1_conv_stage3_block0_branch2a_1_convolutionx_groups_0 = const()[name = tensor<string, []>("opennsfw2_1_conv_stage3_block0_branch2a_1_convolutionx_groups_0"), val = tensor<int32, []>(1)];
            tensor<int32, [4]> opennsfw2_1_conv_stage3_block0_branch2a_1_convolutionx_pad_0 = const()[name = tensor<string, []>("opennsfw2_1_conv_stage3_block0_branch2a_1_convolutionx_pad_0"), val = tensor<int32, [4]>([0, 0, 0, 0])];
            tensor<fp16, [256, 512, 1, 1]> const_299_to_fp16 = const()[name = tensor<string, []>("const_299_to_fp16"), val = tensor<fp16, [256, 512, 1, 1]>(BLOBFILE(path = tensor<string, []>("@model_path/weights/weight.bin"), offset = tensor<uint64, []>(4301632)))];
            tensor<fp16, [256]> const_300_to_fp16 = const()[name = tensor<string, []>("const_300_to_fp16"), val = tensor<fp16, [256]>(BLOBFILE(path = tensor<string, []>("@model_path/weights/weight.bin"), offset = tensor<uint64, []>(4563840)))];
            tensor<fp16, [1, 256, 7, 7]> opennsfw2_1_bn_stage3_block0_branch2a_1_batchnorm_add_1_cast_fp16 = conv(bias = const_300_to_fp16, dilations = opennsfw2_1_conv_stage3_block0_branch2a_1_convolutionx_dilations_0, groups = opennsfw2_1_conv_stage3_block0_branch2a_1_convolutionx_groups_0, pad = opennsfw2_1_conv_stage3_block0_branch2a_1_convolutionx_pad_0, pad_type = opennsfw2_1_conv_stage3_block0_branch2a_1_convolutionx_pad_type_0, strides = opennsfw2_1_conv_stage3_block0_branch2a_1_convolutionx_strides_0, weight = const_299_to_fp16, x = opennsfw2_1_activation_stage2_block5_1_Relu_cast_fp16)[name = tensor<string, []>("opennsfw2_1_bn_stage3_block0_branch2a_1_batchnorm_add_1_cast_fp16")];
            tensor<string, []> opennsfw2_1_conv_stage3_block0_proj_shortcut_1_convolutionx_pad_type_0 = const()[name = tensor<string, []>("opennsfw2_1_conv_stage3_block0_proj_shortcut_1_convolutionx_pad_type_0"), val = tensor<string, []>("same")];
            tensor<int32, [2]> opennsfw2_1_conv_stage3_block0_proj_shortcut_1_convolutionx_strides_0 = const()[name = tensor<string, []>("opennsfw2_1_conv_stage3_block0_proj_shortcut_1_convolutionx_strides_0"), val = tensor<int32, [2]>([2, 2])];
            tensor<int32, [2]> opennsfw2_1_conv_stage3_block0_proj_shortcut_1_convolutionx_dilations_0 = const()[name = tensor<string, []>("opennsfw2_1_conv_stage3_block0_proj_shortcut_1_convolutionx_dilations_0"), val = tensor<int32, [2]>([1, 1])];
            tensor<int32, []> opennsfw2_1_conv_stage3_block0_proj_shortcut_1_convolutionx_groups_0 = const()[name = tensor<string, []>("opennsfw2_1_conv_stage3_block0_proj_shortcut_1_convolutionx_groups_0"), val = tensor<int32, []>(1)];
            tensor<int32, [4]> opennsfw2_1_conv_stage3_block0_proj_shortcut_1_convolutionx_pad_0 = const()[name = tensor<string, []>("opennsfw2_1_conv_stage3_block0_proj_shortcut_1_convolutionx_pad_0"), val = tensor<int32, [4]>([0, 0, 0, 0])];
            tensor<fp16, [1024, 512, 1, 1]> const_301_to_fp16 = const()[name = tensor<string, []>("const_301_to_fp16"), val = tensor<fp16, [1024, 512, 1, 1]>(BLOBFILE(path = tensor<string, []>("@model_path/weights/weight.bin"), offset = tensor<uint64, []>(4564416)))];
            tensor<fp16, [1024]> const_302_to_fp16 = const()[name = tensor<string, []>("const_302_to_fp16"), val = tensor<fp16, [1024]>(BLOBFILE(path = tensor<string, []>("@model_path/weights/weight.bin"), offset = tensor<uint64, []>(5613056)))];
            tensor<fp16, [1, 1024, 7, 7]> opennsfw2_1_bn_stage3_block0_proj_shortcut_1_batchnorm_add_1_cast_fp16 = conv(bias = const_302_to_fp16, dilations = opennsfw2_1_conv_stage3_block0_proj_shortcut_1_convolutionx_dilations_0, groups = opennsfw2_1_conv_stage3_block0_proj_shortcut_1_convolutionx_groups_0, pad = opennsfw2_1_conv_stage3_block0_proj_shortcut_1_convolutionx_pad_0, pad_type = opennsfw2_1_conv_stage3_block0_proj_shortcut_1_convolutionx_pad_type_0, strides = opennsfw2_1_conv_stage3_block0_proj_shortcut_1_convolutionx_strides_0, weight = const_301_to_fp16, x = opennsfw2_1_activation_stage2_block5_1_Relu_cast_fp16)[name = tensor<string, []>("opennsfw2_1_bn_stage3_block0_proj_shortcut_1_batchnorm_add_1_cast_fp16")];
            tensor<fp16, [1, 256, 7, 7]> opennsfw2_1_activation_stage3_block0_branch2a_1_Relu_cast_fp16 = relu(x = opennsfw2_1_bn_stage3_block0_branch2a_1_batchnorm_add_1_cast_fp16)[name = tensor<string, []>("opennsfw2_1_activation_stage3_block0_branch2a_1_Relu_cast_fp16")];
            tensor<string, []> opennsfw2_1_conv_stage3_block0_branch2b_1_convolutionx_pad_type_0 = const()[name = tensor<string, []>("opennsfw2_1_conv_stage3_block0_branch2b_1_convolutionx_pad_type_0"), val = tensor<string, []>("same")];
            tensor<int32, [2]> opennsfw2_1_conv_stage3_block0_branch2b_1_convolutionx_strides_0 = const()[name = tensor<string, []>("opennsfw2_1_conv_stage3_block0_branch2b_1_convolutionx_strides_0"), val = tensor<int32, [2]>([1, 1])];
            tensor<int32, [2]> opennsfw2_1_conv_stage3_block0_branch2b_1_convolutionx_dilations_0 = const()[name = tensor<string, []>("opennsfw2_1_conv_stage3_block0_branch2b_1_convolutionx_dilations_0"), val = tensor<int32, [2]>([1, 1])];
            tensor<int32, []> opennsfw2_1_conv_stage3_block0_branch2b_1_convolutionx_groups_0 = const()[name = tensor<string, []>("opennsfw2_1_conv_stage3_block0_branch2b_1_convolutionx_groups_0"), val = tensor<int32, []>(1)];
            tensor<int32, [4]> opennsfw2_1_conv_stage3_block0_branch2b_1_convolutionx_pad_0 = const()[name = tensor<string, []>("opennsfw2_1_conv_stage3_block0_branch2b_1_convolutionx_pad_0"), val = tensor<int32, [4]>([0, 0, 0, 0])];
            tensor<fp16, [256, 256, 3, 3]> const_303_to_fp16 = const()[name = tensor<string, []>("const_303_to_fp16"), val = tensor<fp16, [256, 256, 3, 3]>(BLOBFILE(path = tensor<string, []>("@model_path/weights/weight.bin"), offset = tensor<uint64, []>(5615168)))];
            tensor<fp16, [256]> const_304_to_fp16 = const()[name = tensor<string, []>("const_304_to_fp16"), val = tensor<fp16, [256]>(BLOBFILE(path = tensor<string, []>("@model_path/weights/weight.bin"), offset = tensor<uint64, []>(6794880)))];
            tensor<fp16, [1, 256, 7, 7]> opennsfw2_1_bn_stage3_block0_branch2b_1_batchnorm_add_1_cast_fp16 = conv(bias = const_304_to_fp16, dilations = opennsfw2_1_conv_stage3_block0_branch2b_1_convolutionx_dilations_0, groups = opennsfw2_1_conv_stage3_block0_branch2b_1_convolutionx_groups_0, pad = opennsfw2_1_conv_stage3_block0_branch2b_1_convolutionx_pad_0, pad_type = opennsfw2_1_conv_stage3_block0_branch2b_1_convolutionx_pad_type_0, strides = opennsfw2_1_conv_stage3_block0_branch2b_1_convolutionx_strides_0, weight = const_303_to_fp16, x = opennsfw2_1_activation_stage3_block0_branch2a_1_Relu_cast_fp16)[name = tensor<string, []>("opennsfw2_1_bn_stage3_block0_branch2b_1_batchnorm_add_1_cast_fp16")];
            tensor<fp16, [1, 256, 7, 7]> opennsfw2_1_activation_stage3_block0_branch2b_1_Relu_cast_fp16 = relu(x = opennsfw2_1_bn_stage3_block0_branch2b_1_batchnorm_add_1_cast_fp16)[name = tensor<string, []>("opennsfw2_1_activation_stage3_block0_branch2b_1_Relu_cast_fp16")];
            tensor<string, []> opennsfw2_1_conv_stage3_block0_branch2c_1_convolutionx_pad_type_0 = const()[name = tensor<string, []>("opennsfw2_1_conv_stage3_block0_branch2c_1_convolutionx_pad_type_0"), val = tensor<string, []>("same")];
            tensor<int32, [2]> opennsfw2_1_conv_stage3_block0_branch2c_1_convolutionx_strides_0 = const()[name = tensor<string, []>("opennsfw2_1_conv_stage3_block0_branch2c_1_convolutionx_strides_0"), val = tensor<int32, [2]>([1, 1])];
            tensor<int32, [2]> opennsfw2_1_conv_stage3_block0_branch2c_1_convolutionx_dilations_0 = const()[name = tensor<string, []>("opennsfw2_1_conv_stage3_block0_branch2c_1_convolutionx_dilations_0"), val = tensor<int32, [2]>([1, 1])];
            tensor<int32, []> opennsfw2_1_conv_stage3_block0_branch2c_1_convolutionx_groups_0 = const()[name = tensor<string, []>("opennsfw2_1_conv_stage3_block0_branch2c_1_convolutionx_groups_0"), val = tensor<int32, []>(1)];
            tensor<int32, [4]> opennsfw2_1_conv_stage3_block0_branch2c_1_convolutionx_pad_0 = const()[name = tensor<string, []>("opennsfw2_1_conv_stage3_block0_branch2c_1_convolutionx_pad_0"), val = tensor<int32, [4]>([0, 0, 0, 0])];
            tensor<fp16, [1024, 256, 1, 1]> const_305_to_fp16 = const()[name = tensor<string, []>("const_305_to_fp16"), val = tensor<fp16, [1024, 256, 1, 1]>(BLOBFILE(path = tensor<string, []>("@model_path/weights/weight.bin"), offset = tensor<uint64, []>(6795456)))];
            tensor<fp16, [1024]> const_306_to_fp16 = const()[name = tensor<string, []>("const_306_to_fp16"), val = tensor<fp16, [1024]>(BLOBFILE(path = tensor<string, []>("@model_path/weights/weight.bin"), offset = tensor<uint64, []>(7319808)))];
            tensor<fp16, [1, 1024, 7, 7]> opennsfw2_1_bn_stage3_block0_branch2c_1_batchnorm_add_1_cast_fp16 = conv(bias = const_306_to_fp16, dilations = opennsfw2_1_conv_stage3_block0_branch2c_1_convolutionx_dilations_0, groups = opennsfw2_1_conv_stage3_block0_branch2c_1_convolutionx_groups_0, pad = opennsfw2_1_conv_stage3_block0_branch2c_1_convolutionx_pad_0, pad_type = opennsfw2_1_conv_stage3_block0_branch2c_1_convolutionx_pad_type_0, strides = opennsfw2_1_conv_stage3_block0_branch2c_1_convolutionx_strides_0, weight = const_305_to_fp16, x = opennsfw2_1_activation_stage3_block0_branch2b_1_Relu_cast_fp16)[name = tensor<string, []>("opennsfw2_1_bn_stage3_block0_branch2c_1_batchnorm_add_1_cast_fp16")];
            tensor<fp16, [1, 1024, 7, 7]> opennsfw2_1_add_13_1_Add_cast_fp16 = add(x = opennsfw2_1_bn_stage3_block0_branch2c_1_batchnorm_add_1_cast_fp16, y = opennsfw2_1_bn_stage3_block0_proj_shortcut_1_batchnorm_add_1_cast_fp16)[name = tensor<string, []>("opennsfw2_1_add_13_1_Add_cast_fp16")];
            tensor<fp16, [1, 1024, 7, 7]> opennsfw2_1_activation_stage3_block0_1_Relu_cast_fp16 = relu(x = opennsfw2_1_add_13_1_Add_cast_fp16)[name = tensor<string, []>("opennsfw2_1_activation_stage3_block0_1_Relu_cast_fp16")];
            tensor<string, []> opennsfw2_1_conv_stage3_block1_branch2a_1_convolutionx_pad_type_0 = const()[name = tensor<string, []>("opennsfw2_1_conv_stage3_block1_branch2a_1_convolutionx_pad_type_0"), val = tensor<string, []>("same")];
            tensor<int32, [2]> opennsfw2_1_conv_stage3_block1_branch2a_1_convolutionx_strides_0 = const()[name = tensor<string, []>("opennsfw2_1_conv_stage3_block1_branch2a_1_convolutionx_strides_0"), val = tensor<int32, [2]>([1, 1])];
            tensor<int32, [2]> opennsfw2_1_conv_stage3_block1_branch2a_1_convolutionx_dilations_0 = const()[name = tensor<string, []>("opennsfw2_1_conv_stage3_block1_branch2a_1_convolutionx_dilations_0"), val = tensor<int32, [2]>([1, 1])];
            tensor<int32, []> opennsfw2_1_conv_stage3_block1_branch2a_1_convolutionx_groups_0 = const()[name = tensor<string, []>("opennsfw2_1_conv_stage3_block1_branch2a_1_convolutionx_groups_0"), val = tensor<int32, []>(1)];
            tensor<int32, [4]> opennsfw2_1_conv_stage3_block1_branch2a_1_convolutionx_pad_0 = const()[name = tensor<string, []>("opennsfw2_1_conv_stage3_block1_branch2a_1_convolutionx_pad_0"), val = tensor<int32, [4]>([0, 0, 0, 0])];
            tensor<fp16, [256, 1024, 1, 1]> const_307_to_fp16 = const()[name = tensor<string, []>("const_307_to_fp16"), val = tensor<fp16, [256, 1024, 1, 1]>(BLOBFILE(path = tensor<string, []>("@model_path/weights/weight.bin"), offset = tensor<uint64, []>(7321920)))];
            tensor<fp16, [256]> const_308_to_fp16 = const()[name = tensor<string, []>("const_308_to_fp16"), val = tensor<fp16, [256]>(BLOBFILE(path = tensor<string, []>("@model_path/weights/weight.bin"), offset = tensor<uint64, []>(7846272)))];
            tensor<fp16, [1, 256, 7, 7]> opennsfw2_1_bn_stage3_block1_branch2a_1_batchnorm_add_1_cast_fp16 = conv(bias = const_308_to_fp16, dilations = opennsfw2_1_conv_stage3_block1_branch2a_1_convolutionx_dilations_0, groups = opennsfw2_1_conv_stage3_block1_branch2a_1_convolutionx_groups_0, pad = opennsfw2_1_conv_stage3_block1_branch2a_1_convolutionx_pad_0, pad_type = opennsfw2_1_conv_stage3_block1_branch2a_1_convolutionx_pad_type_0, strides = opennsfw2_1_conv_stage3_block1_branch2a_1_convolutionx_strides_0, weight = const_307_to_fp16, x = opennsfw2_1_activation_stage3_block0_1_Relu_cast_fp16)[name = tensor<string, []>("opennsfw2_1_bn_stage3_block1_branch2a_1_batchnorm_add_1_cast_fp16")];
            tensor<fp16, [1, 256, 7, 7]> opennsfw2_1_activation_stage3_block1_branch2a_1_Relu_cast_fp16 = relu(x = opennsfw2_1_bn_stage3_block1_branch2a_1_batchnorm_add_1_cast_fp16)[name = tensor<string, []>("opennsfw2_1_activation_stage3_block1_branch2a_1_Relu_cast_fp16")];
            tensor<string, []> opennsfw2_1_conv_stage3_block1_branch2b_1_convolutionx_pad_type_0 = const()[name = tensor<string, []>("opennsfw2_1_conv_stage3_block1_branch2b_1_convolutionx_pad_type_0"), val = tensor<string, []>("same")];
            tensor<int32, [2]> opennsfw2_1_conv_stage3_block1_branch2b_1_convolutionx_strides_0 = const()[name = tensor<string, []>("opennsfw2_1_conv_stage3_block1_branch2b_1_convolutionx_strides_0"), val = tensor<int32, [2]>([1, 1])];
            tensor<int32, [2]> opennsfw2_1_conv_stage3_block1_branch2b_1_convolutionx_dilations_0 = const()[name = tensor<string, []>("opennsfw2_1_conv_stage3_block1_branch2b_1_convolutionx_dilations_0"), val = tensor<int32, [2]>([1, 1])];
            tensor<int32, []> opennsfw2_1_conv_stage3_block1_branch2b_1_convolutionx_groups_0 = const()[name = tensor<string, []>("opennsfw2_1_conv_stage3_block1_branch2b_1_convolutionx_groups_0"), val = tensor<int32, []>(1)];
            tensor<int32, [4]> opennsfw2_1_conv_stage3_block1_branch2b_1_convolutionx_pad_0 = const()[name = tensor<string, []>("opennsfw2_1_conv_stage3_block1_branch2b_1_convolutionx_pad_0"), val = tensor<int32, [4]>([0, 0, 0, 0])];
            tensor<fp16, [256, 256, 3, 3]> const_309_to_fp16 = const()[name = tensor<string, []>("const_309_to_fp16"), val = tensor<fp16, [256, 256, 3, 3]>(BLOBFILE(path = tensor<string, []>("@model_path/weights/weight.bin"), offset = tensor<uint64, []>(7846848)))];
            tensor<fp16, [256]> const_310_to_fp16 = const()[name = tensor<string, []>("const_310_to_fp16"), val = tensor<fp16, [256]>(BLOBFILE(path = tensor<string, []>("@model_path/weights/weight.bin"), offset = tensor<uint64, []>(9026560)))];
            tensor<fp16, [1, 256, 7, 7]> opennsfw2_1_bn_stage3_block1_branch2b_1_batchnorm_add_1_cast_fp16 = conv(bias = const_310_to_fp16, dilations = opennsfw2_1_conv_stage3_block1_branch2b_1_convolutionx_dilations_0, groups = opennsfw2_1_conv_stage3_block1_branch2b_1_convolutionx_groups_0, pad = opennsfw2_1_conv_stage3_block1_branch2b_1_convolutionx_pad_0, pad_type = opennsfw2_1_conv_stage3_block1_branch2b_1_convolutionx_pad_type_0, strides = opennsfw2_1_conv_stage3_block1_branch2b_1_convolutionx_strides_0, weight = const_309_to_fp16, x = opennsfw2_1_activation_stage3_block1_branch2a_1_Relu_cast_fp16)[name = tensor<string, []>("opennsfw2_1_bn_stage3_block1_branch2b_1_batchnorm_add_1_cast_fp16")];
            tensor<fp16, [1, 256, 7, 7]> opennsfw2_1_activation_stage3_block1_branch2b_1_Relu_cast_fp16 = relu(x = opennsfw2_1_bn_stage3_block1_branch2b_1_batchnorm_add_1_cast_fp16)[name = tensor<string, []>("opennsfw2_1_activation_stage3_block1_branch2b_1_Relu_cast_fp16")];
            tensor<string, []> opennsfw2_1_conv_stage3_block1_branch2c_1_convolutionx_pad_type_0 = const()[name = tensor<string, []>("opennsfw2_1_conv_stage3_block1_branch2c_1_convolutionx_pad_type_0"), val = tensor<string, []>("same")];
            tensor<int32, [2]> opennsfw2_1_conv_stage3_block1_branch2c_1_convolutionx_strides_0 = const()[name = tensor<string, []>("opennsfw2_1_conv_stage3_block1_branch2c_1_convolutionx_strides_0"), val = tensor<int32, [2]>([1, 1])];
            tensor<int32, [2]> opennsfw2_1_conv_stage3_block1_branch2c_1_convolutionx_dilations_0 = const()[name = tensor<string, []>("opennsfw2_1_conv_stage3_block1_branch2c_1_convolutionx_dilations_0"), val = tensor<int32, [2]>([1, 1])];
            tensor<int32, []> opennsfw2_1_conv_stage3_block1_branch2c_1_convolutionx_groups_0 = const()[name = tensor<string, []>("opennsfw2_1_conv_stage3_block1_branch2c_1_convolutionx_groups_0"), val = tensor<int32, []>(1)];
            tensor<int32, [4]> opennsfw2_1_conv_stage3_block1_branch2c_1_convolutionx_pad_0 = const()[name = tensor<string, []>("opennsfw2_1_conv_stage3_block1_branch2c_1_convolutionx_pad_0"), val = tensor<int32, [4]>([0, 0, 0, 0])];
            tensor<fp16, [1024, 256, 1, 1]> const_311_to_fp16 = const()[name = tensor<string, []>("const_311_to_fp16"), val = tensor<fp16, [1024, 256, 1, 1]>(BLOBFILE(path = tensor<string, []>("@model_path/weights/weight.bin"), offset = tensor<uint64, []>(9027136)))];
            tensor<fp16, [1024]> const_312_to_fp16 = const()[name = tensor<string, []>("const_312_to_fp16"), val = tensor<fp16, [1024]>(BLOBFILE(path = tensor<string, []>("@model_path/weights/weight.bin"), offset = tensor<uint64, []>(9551488)))];
            tensor<fp16, [1, 1024, 7, 7]> opennsfw2_1_bn_stage3_block1_branch2c_1_batchnorm_add_1_cast_fp16 = conv(bias = const_312_to_fp16, dilations = opennsfw2_1_conv_stage3_block1_branch2c_1_convolutionx_dilations_0, groups = opennsfw2_1_conv_stage3_block1_branch2c_1_convolutionx_groups_0, pad = opennsfw2_1_conv_stage3_block1_branch2c_1_convolutionx_pad_0, pad_type = opennsfw2_1_conv_stage3_block1_branch2c_1_convolutionx_pad_type_0, strides = opennsfw2_1_conv_stage3_block1_branch2c_1_convolutionx_strides_0, weight = const_311_to_fp16, x = opennsfw2_1_activation_stage3_block1_branch2b_1_Relu_cast_fp16)[name = tensor<string, []>("opennsfw2_1_bn_stage3_block1_branch2c_1_batchnorm_add_1_cast_fp16")];
            tensor<fp16, [1, 1024, 7, 7]> opennsfw2_1_add_14_1_Add_cast_fp16 = add(x = opennsfw2_1_bn_stage3_block1_branch2c_1_batchnorm_add_1_cast_fp16, y = opennsfw2_1_activation_stage3_block0_1_Relu_cast_fp16)[name = tensor<string, []>("opennsfw2_1_add_14_1_Add_cast_fp16")];
            tensor<fp16, [1, 1024, 7, 7]> opennsfw2_1_activation_stage3_block1_1_Relu_cast_fp16 = relu(x = opennsfw2_1_add_14_1_Add_cast_fp16)[name = tensor<string, []>("opennsfw2_1_activation_stage3_block1_1_Relu_cast_fp16")];
            tensor<string, []> opennsfw2_1_conv_stage3_block2_branch2a_1_convolutionx_pad_type_0 = const()[name = tensor<string, []>("opennsfw2_1_conv_stage3_block2_branch2a_1_convolutionx_pad_type_0"), val = tensor<string, []>("same")];
            tensor<int32, [2]> opennsfw2_1_conv_stage3_block2_branch2a_1_convolutionx_strides_0 = const()[name = tensor<string, []>("opennsfw2_1_conv_stage3_block2_branch2a_1_convolutionx_strides_0"), val = tensor<int32, [2]>([1, 1])];
            tensor<int32, [2]> opennsfw2_1_conv_stage3_block2_branch2a_1_convolutionx_dilations_0 = const()[name = tensor<string, []>("opennsfw2_1_conv_stage3_block2_branch2a_1_convolutionx_dilations_0"), val = tensor<int32, [2]>([1, 1])];
            tensor<int32, []> opennsfw2_1_conv_stage3_block2_branch2a_1_convolutionx_groups_0 = const()[name = tensor<string, []>("opennsfw2_1_conv_stage3_block2_branch2a_1_convolutionx_groups_0"), val = tensor<int32, []>(1)];
            tensor<int32, [4]> opennsfw2_1_conv_stage3_block2_branch2a_1_convolutionx_pad_0 = const()[name = tensor<string, []>("opennsfw2_1_conv_stage3_block2_branch2a_1_convolutionx_pad_0"), val = tensor<int32, [4]>([0, 0, 0, 0])];
            tensor<fp16, [256, 1024, 1, 1]> const_313_to_fp16 = const()[name = tensor<string, []>("const_313_to_fp16"), val = tensor<fp16, [256, 1024, 1, 1]>(BLOBFILE(path = tensor<string, []>("@model_path/weights/weight.bin"), offset = tensor<uint64, []>(9553600)))];
            tensor<fp16, [256]> const_314_to_fp16 = const()[name = tensor<string, []>("const_314_to_fp16"), val = tensor<fp16, [256]>(BLOBFILE(path = tensor<string, []>("@model_path/weights/weight.bin"), offset = tensor<uint64, []>(10077952)))];
            tensor<fp16, [1, 256, 7, 7]> opennsfw2_1_bn_stage3_block2_branch2a_1_batchnorm_add_1_cast_fp16 = conv(bias = const_314_to_fp16, dilations = opennsfw2_1_conv_stage3_block2_branch2a_1_convolutionx_dilations_0, groups = opennsfw2_1_conv_stage3_block2_branch2a_1_convolutionx_groups_0, pad = opennsfw2_1_conv_stage3_block2_branch2a_1_convolutionx_pad_0, pad_type = opennsfw2_1_conv_stage3_block2_branch2a_1_convolutionx_pad_type_0, strides = opennsfw2_1_conv_stage3_block2_branch2a_1_convolutionx_strides_0, weight = const_313_to_fp16, x = opennsfw2_1_activation_stage3_block1_1_Relu_cast_fp16)[name = tensor<string, []>("opennsfw2_1_bn_stage3_block2_branch2a_1_batchnorm_add_1_cast_fp16")];
            tensor<fp16, [1, 256, 7, 7]> opennsfw2_1_activation_stage3_block2_branch2a_1_Relu_cast_fp16 = relu(x = opennsfw2_1_bn_stage3_block2_branch2a_1_batchnorm_add_1_cast_fp16)[name = tensor<string, []>("opennsfw2_1_activation_stage3_block2_branch2a_1_Relu_cast_fp16")];
            tensor<string, []> opennsfw2_1_conv_stage3_block2_branch2b_1_convolutionx_pad_type_0 = const()[name = tensor<string, []>("opennsfw2_1_conv_stage3_block2_branch2b_1_convolutionx_pad_type_0"), val = tensor<string, []>("same")];
            tensor<int32, [2]> opennsfw2_1_conv_stage3_block2_branch2b_1_convolutionx_strides_0 = const()[name = tensor<string, []>("opennsfw2_1_conv_stage3_block2_branch2b_1_convolutionx_strides_0"), val = tensor<int32, [2]>([1, 1])];
            tensor<int32, [2]> opennsfw2_1_conv_stage3_block2_branch2b_1_convolutionx_dilations_0 = const()[name = tensor<string, []>("opennsfw2_1_conv_stage3_block2_branch2b_1_convolutionx_dilations_0"), val = tensor<int32, [2]>([1, 1])];
            tensor<int32, []> opennsfw2_1_conv_stage3_block2_branch2b_1_convolutionx_groups_0 = const()[name = tensor<string, []>("opennsfw2_1_conv_stage3_block2_branch2b_1_convolutionx_groups_0"), val = tensor<int32, []>(1)];
            tensor<int32, [4]> opennsfw2_1_conv_stage3_block2_branch2b_1_convolutionx_pad_0 = const()[name = tensor<string, []>("opennsfw2_1_conv_stage3_block2_branch2b_1_convolutionx_pad_0"), val = tensor<int32, [4]>([0, 0, 0, 0])];
            tensor<fp16, [256, 256, 3, 3]> const_315_to_fp16 = const()[name = tensor<string, []>("const_315_to_fp16"), val = tensor<fp16, [256, 256, 3, 3]>(BLOBFILE(path = tensor<string, []>("@model_path/weights/weight.bin"), offset = tensor<uint64, []>(10078528)))];
            tensor<fp16, [256]> const_316_to_fp16 = const()[name = tensor<string, []>("const_316_to_fp16"), val = tensor<fp16, [256]>(BLOBFILE(path = tensor<string, []>("@model_path/weights/weight.bin"), offset = tensor<uint64, []>(11258240)))];
            tensor<fp16, [1, 256, 7, 7]> opennsfw2_1_bn_stage3_block2_branch2b_1_batchnorm_add_1_cast_fp16 = conv(bias = const_316_to_fp16, dilations = opennsfw2_1_conv_stage3_block2_branch2b_1_convolutionx_dilations_0, groups = opennsfw2_1_conv_stage3_block2_branch2b_1_convolutionx_groups_0, pad = opennsfw2_1_conv_stage3_block2_branch2b_1_convolutionx_pad_0, pad_type = opennsfw2_1_conv_stage3_block2_branch2b_1_convolutionx_pad_type_0, strides = opennsfw2_1_conv_stage3_block2_branch2b_1_convolutionx_strides_0, weight = const_315_to_fp16, x = opennsfw2_1_activation_stage3_block2_branch2a_1_Relu_cast_fp16)[name = tensor<string, []>("opennsfw2_1_bn_stage3_block2_branch2b_1_batchnorm_add_1_cast_fp16")];
            tensor<fp16, [1, 256, 7, 7]> opennsfw2_1_activation_stage3_block2_branch2b_1_Relu_cast_fp16 = relu(x = opennsfw2_1_bn_stage3_block2_branch2b_1_batchnorm_add_1_cast_fp16)[name = tensor<string, []>("opennsfw2_1_activation_stage3_block2_branch2b_1_Relu_cast_fp16")];
            tensor<string, []> opennsfw2_1_conv_stage3_block2_branch2c_1_convolutionx_pad_type_0 = const()[name = tensor<string, []>("opennsfw2_1_conv_stage3_block2_branch2c_1_convolutionx_pad_type_0"), val = tensor<string, []>("same")];
            tensor<int32, [2]> opennsfw2_1_conv_stage3_block2_branch2c_1_convolutionx_strides_0 = const()[name = tensor<string, []>("opennsfw2_1_conv_stage3_block2_branch2c_1_convolutionx_strides_0"), val = tensor<int32, [2]>([1, 1])];
            tensor<int32, [2]> opennsfw2_1_conv_stage3_block2_branch2c_1_convolutionx_dilations_0 = const()[name = tensor<string, []>("opennsfw2_1_conv_stage3_block2_branch2c_1_convolutionx_dilations_0"), val = tensor<int32, [2]>([1, 1])];
            tensor<int32, []> opennsfw2_1_conv_stage3_block2_branch2c_1_convolutionx_groups_0 = const()[name = tensor<string, []>("opennsfw2_1_conv_stage3_block2_branch2c_1_convolutionx_groups_0"), val = tensor<int32, []>(1)];
            tensor<int32, [4]> opennsfw2_1_conv_stage3_block2_branch2c_1_convolutionx_pad_0 = const()[name = tensor<string, []>("opennsfw2_1_conv_stage3_block2_branch2c_1_convolutionx_pad_0"), val = tensor<int32, [4]>([0, 0, 0, 0])];
            tensor<fp16, [1024, 256, 1, 1]> const_317_to_fp16 = const()[name = tensor<string, []>("const_317_to_fp16"), val = tensor<fp16, [1024, 256, 1, 1]>(BLOBFILE(path = tensor<string, []>("@model_path/weights/weight.bin"), offset = tensor<uint64, []>(11258816)))];
            tensor<fp16, [1024]> const_318_to_fp16 = const()[name = tensor<string, []>("const_318_to_fp16"), val = tensor<fp16, [1024]>(BLOBFILE(path = tensor<string, []>("@model_path/weights/weight.bin"), offset = tensor<uint64, []>(11783168)))];
            tensor<fp16, [1, 1024, 7, 7]> opennsfw2_1_bn_stage3_block2_branch2c_1_batchnorm_add_1_cast_fp16 = conv(bias = const_318_to_fp16, dilations = opennsfw2_1_conv_stage3_block2_branch2c_1_convolutionx_dilations_0, groups = opennsfw2_1_conv_stage3_block2_branch2c_1_convolutionx_groups_0, pad = opennsfw2_1_conv_stage3_block2_branch2c_1_convolutionx_pad_0, pad_type = opennsfw2_1_conv_stage3_block2_branch2c_1_convolutionx_pad_type_0, strides = opennsfw2_1_conv_stage3_block2_branch2c_1_convolutionx_strides_0, weight = const_317_to_fp16, x = opennsfw2_1_activation_stage3_block2_branch2b_1_Relu_cast_fp16)[name = tensor<string, []>("opennsfw2_1_bn_stage3_block2_branch2c_1_batchnorm_add_1_cast_fp16")];
            tensor<fp16, [1, 1024, 7, 7]> opennsfw2_1_add_15_1_Add_cast_fp16 = add(x = opennsfw2_1_bn_stage3_block2_branch2c_1_batchnorm_add_1_cast_fp16, y = opennsfw2_1_activation_stage3_block1_1_Relu_cast_fp16)[name = tensor<string, []>("opennsfw2_1_add_15_1_Add_cast_fp16")];
            tensor<fp16, [1, 1024, 7, 7]> opennsfw2_1_activation_stage3_block2_1_Relu_cast_fp16 = relu(x = opennsfw2_1_add_15_1_Add_cast_fp16)[name = tensor<string, []>("opennsfw2_1_activation_stage3_block2_1_Relu_cast_fp16")];
            tensor<int32, [2]> opennsfw2_1_global_average_pooling2d_1_Mean_axes_0 = const()[name = tensor<string, []>("opennsfw2_1_global_average_pooling2d_1_Mean_axes_0"), val = tensor<int32, [2]>([1, 2])];
            tensor<bool, []> opennsfw2_1_global_average_pooling2d_1_Mean_keep_dims_0 = const()[name = tensor<string, []>("opennsfw2_1_global_average_pooling2d_1_Mean_keep_dims_0"), val = tensor<bool, []>(false)];
            tensor<int32, [4]> transpose_109_perm_0 = const()[name = tensor<string, []>("transpose_109_perm_0"), val = tensor<int32, [4]>([0, 2, 3, 1])];
            tensor<fp16, [1, 7, 7, 1024]> transpose_109_cast_fp16 = transpose(perm = transpose_109_perm_0, x = opennsfw2_1_activation_stage3_block2_1_Relu_cast_fp16)[name = tensor<string, []>("transpose_110")];
            tensor<fp16, [1, 1024]> opennsfw2_1_global_average_pooling2d_1_Mean_cast_fp16 = reduce_mean(axes = opennsfw2_1_global_average_pooling2d_1_Mean_axes_0, keep_dims = opennsfw2_1_global_average_pooling2d_1_Mean_keep_dims_0, x = transpose_109_cast_fp16)[name = tensor<string, []>("opennsfw2_1_global_average_pooling2d_1_Mean_cast_fp16")];
            tensor<fp16, [2, 1024]> transpose_107_cast_fp16_to_fp32_to_fp16 = const()[name = tensor<string, []>("transpose_107_cast_fp16_to_fp32_to_fp16"), val = tensor<fp16, [2, 1024]>(BLOBFILE(path = tensor<string, []>("@model_path/weights/weight.bin"), offset = tensor<uint64, []>(11785280)))];
            tensor<fp16, [2]> opennsfw2_1_fc_nsfw_1_BiasAdd_bias_0_to_fp16 = const()[name = tensor<string, []>("opennsfw2_1_fc_nsfw_1_BiasAdd_bias_0_to_fp16"), val = tensor<fp16, [2]>([-0x1.bf4p-1, 0x1.2a4p+0])];
            tensor<fp16, [1, 2]> opennsfw2_1_fc_nsfw_1_BiasAdd_cast_fp16 = linear(bias = opennsfw2_1_fc_nsfw_1_BiasAdd_bias_0_to_fp16, weight = transpose_107_cast_fp16_to_fp32_to_fp16, x = opennsfw2_1_global_average_pooling2d_1_Mean_cast_fp16)[name = tensor<string, []>("opennsfw2_1_fc_nsfw_1_BiasAdd_cast_fp16")];
            tensor<int32, []> opennsfw2_1_predictions_1_Softmax_axis_0 = const()[name = tensor<string, []>("opennsfw2_1_predictions_1_Softmax_axis_0"), val = tensor<int32, []>(-1)];
            tensor<fp16, [1, 2]> opennsfw2_1_predictions_1_Softmax_cast_fp16 = softmax(axis = opennsfw2_1_predictions_1_Softmax_axis_0, x = opennsfw2_1_fc_nsfw_1_BiasAdd_cast_fp16)[name = tensor<string, []>("opennsfw2_1_predictions_1_Softmax_cast_fp16")];
            tensor<string, []> opennsfw2_1_predictions_1_Softmax_cast_fp16_to_fp32_dtype_0 = const()[name = tensor<string, []>("opennsfw2_1_predictions_1_Softmax_cast_fp16_to_fp32_dtype_0"), val = tensor<string, []>("fp32")];
            tensor<fp32, [1, 2]> Identity = cast(dtype = opennsfw2_1_predictions_1_Softmax_cast_fp16_to_fp32_dtype_0, x = opennsfw2_1_predictions_1_Softmax_cast_fp16)[name = tensor<string, []>("cast_1")];
        } -> (Identity);
}